A2C/saved_models/agent0_best_a2c.pth (torch, 883412 bytes, 24 tensors)

0.weight f4 [256, 24]
00000000: 8da3 533e df48 e43d b9de 53bd 0732 4bbe
00000010: 1b68 0c3e 4d23 0ebe d205 24be cb1a 15be
00000020: a7b9 eebc c981 25bc 55f4 3bbe 25ec febc
00000030: 4aa2 7ebd 609b 2abb 3505 b3bd de6d 593d
00000040: bade fdbc 98fe 2abe 2eb0 45be b169 1fbe
00000050: e5c1 2ebc eec0 153e 1faa fbbd 7019 113e
00000060: ba31 5a3e c137 d93d 5da7 c03d 1377 9d3b
00000070: 94c0 153d 8cd3 d8bb 4efc c73c b6c9 333e
00000080: 37f2 aa3d 0b1d 793d 08d0 03be 0148 cebd
00000090: 637b dbbd 4c49 163e 3f5e 37be ede1 4dbe
000000a0: 9dac 503e 8058 263e 53c6 afbd 8827 98bd
000000b0: d9af 5e3d 63df 2dbe 4af6 c73c a12e cdbd
000000c0: 3765 85bd f634 013e 9ca6 adbd 5e0b e23c
000000d0: 325b dfbd 3c22 003e 875b f83d 6ccb 0abe
000000e0: 2ce0 00bd aef5 d33d 21bf 30bd 4a44 623e
000000f0: cbc3 ec3d 6742 78be 29aa e23c da27 e13d
00000100: 6b9a 223e 191b 123e e5f2 293e a43e 2c3e
00000110: 7e3b cfbd c958 83be 8d51 39be d6d6 91bd
00000120: ffdb 1bbd 4ac4 be3d e75e b7bd 896c b63d
00000130: 0f39 67be 28ff 2c3e 3d99 983d f8f5 aabd
00000140: 632f 22be 4435 aabc 1e04 6f3c ac97 8e3c
00000150: b746 3fbd eccf f4bd 1d67 253e afe5 1a3e
00000160: 9603 c43b ef96 f03d 94e3 87bd 4fed 86bd
00000170: 9615 23be 74c5 35be 6214 e5bd 3b39 b23d
00000180: ea57 6e3b 1585 48be 812a 523a ad57 2e3e
00000190: 5462 513e bd2a 25bd 6e5f 533e 709d 883d
000001a0: 291d 453e af0f 81bd ca55 813b 1ad8 f4bd
000001b0: 6764 31be 0cda c43b b674 ed3d 2afb 58bc
000001c0: cf52 7c3d ab42 2dbe eb05 17be c856 2c3e
000001d0: f46b 053e d4e8 5dbe 5fb4 e1bd 660e 403e
000001e0: 14fd c03d 074c 083e 58fb 1abd 307e 24bd
000001f0: 38af acbb 11d0 e63c 9dc4 f0bd ffab bcbd
00000200: 17aa 26be a50d 103c 1e3e b83b 4042 41be
00000210: 1dff 63bc a128 1ebc b655 64bd 4b11 39be
00000220: 2610 4cbd c518 6f3d 1bcc 113e e99c 8c3d
00000230: 7f1d 40be 0489 c03d 2bb3 073e b26c 04bd
00000240: 4fe7 363d b861 573e 27f6 033c 7d40 d9bd
00000250: 30de 37bd b857 253d d899 29be 307f 173d
00000260: e066 e43c 3eee 6d3e af0e 01be 6d0f ca3b
00000270: 3908 09be 4dae 3abe c2f1 2bbe 3d85 dc3d
00000280: 2eca 10bd 0cfc a83d d91f 44bd ebff 9abd
00000290: 321f c13d 9b46 5fbe 849f aebd f3de 133d
000002a0: 79e5 343d 9a4c e53d d855 2fbd 2674 4f3d
000002b0: a396 653e d117 dbbd 4c36 34be 155a a7bd
000002c0: 2af4 733d 25e9 1fbe 4784 04bc bc5c 15bd
000002d0: 0451 8d3c ce44 e3bc b0e8 cdbd 270b 333e
000002e0: 4aec 363d 9abf d3bd fc5f 983c 1b26 7dbc
000002f0: 0357 fc3d 5298 073e 81c4 a236 0c45 503e
00000300: 5bab 033d 30a6 eb3d a955 cb3d d430 d63d
00000310: fc31 1fbe 4e80 fdbd 4955 e7bc 7d3a 423e
00000320: 1b03 14bd 2808 213e f711 283e ba38 593e
00000330: 63af f23d aa21 a63d 633d a3bd 9d32 08bc
00000340: 324a 3b3e b3cf a93c 889a 6ebd ba90 eabc
00000350: cc9c 313d 8543 013e c2aa 44be 7157 543e
00000360: 8e8c 2b3e d09a 5d3c f866 283d f9ed 94bd
00000370: 5d16 f6bd a2f0 273e 6560 14be 2a1b 173d
00000380: 3ce6 b1bc 07e1 06be 097d 253e ec21 093e
00000390: 1e04 5f3d 10cf 5abd 9df5 1dbe 63cd 9bbd
000003a0: bb7d 653d 6d55 b8bd f6ba 463e f747 ed3d
000003b0: 9e86 07be 1071 48be e0fe 4b3e fe6f fa3d
000003c0: 0ebc f63c c5f4 6f3c a440 363d 2b16 093e
000003d0: e702 5c3d d2db 09bd 809f d13d a477 f6bc
000003e0: 353e 73bd 6f52 05be f6ec 0c3d 7257 61bd
000003f0: 2eb3 28bd 9548 1b3e 66e0 2abe c63d 4fbd
0.20667858 0.111467116 -0.051726077 -0.19843303 0.13711588 -0.13880654 -0.16017845 -0.14561002
-0.02914126 -0.010101744 -0.18354924 -0.031118462 -0.06216649 -0.0026032552 -0.087412275 0.053083293
-0.030989993 -0.16698682 -0.19305488 -0.15567662 -0.010666345 0.14624378 -0.122883074 0.1416986
0.21308032 0.10606337 0.09406922 0.0048054545 0.03656061 -0.006617015 0.0244123 0.17557415
0.0834698 0.060818713 -0.12872326 -0.100723274 -0.107168935 0.14676398 -0.17907046 -0.20105715
0.20378347 0.16244698 -0.08582749 -0.07429415 0.05436692 -0.16979747 0.024409432 -0.100186594
-0.06513446 0.12617859 -0.08479044 0.02759331 -0.10906066 0.1251306 0.121268325 -0.13554162
-0.031463787 0.10349594 -0.043151025 0.22096363 0.11560782 -0.2424408 0.02766903 0.10993929
0.15879218 0.1426815 0.16596563 0.1682077 -0.10118769 -0.25653675 -0.18097515 -0.07121055
-0.0380516 0.09314783 -0.08953648 0.0890742 -0.2258036 0.1689421 0.07451103 -0.08347696
-0.15838389 -0.020777352 0.014588384 0.017406307 -0.0466983 -0.119537205 0.16152616 0.1512668
0.005981873 0.11747538 -0.06635204 -0.06588232 -0.15926203 -0.17751104 -0.11185528 0.08702322
0.0036368319 -0.19582017 0.0008017198 0.17025633 0.20447665 -0.04032396 0.20641872 0.06670654
0.19249405 -0.063018195 0.0039469944 -0.119552806 -0.17323457 0.0060074385 0.115945265 -0.013243476
0.06160241 -0.16919963 -0.14748351 0.1682998 0.13029462 -0.21670848 -0.11020731 0.18755493
0.09423271 0.13310252 -0.037837356 -0.040159404 -0.005269911 0.028175386 -0.11756251 -0.09212493
-0.16275822 0.008792316 0.0056226393 -0.18872929 -0.013915804 -0.009653241 -0.055745803 -0.18073003
-0.049820088 0.05837323 0.14238016 0.06865866 -0.18761252 0.09401134 0.13251941 -0.032330222
0.044654187 0.2103337 0.008054293 -0.10608003 -0.04488963 0.04036686 -0.16562593 0.03698653
0.027881086 0.23235413 -0.12603258 0.0061663897 -0.13382043 -0.18230553 -0.16791442 0.10767601
-0.035349064 0.08251199 -0.047881935 -0.07568344 0.09429778 -0.21804278 -0.08526519 0.036101293
0.044164155 0.11196251 -0.042806476 0.050647877 0.22420745 -0.10697902 -0.17598838 -0.08171479
0.059559025 -0.15616281 -0.008088178 -0.03646539 0.017250545 -0.02774277 -0.10054147 0.17484723
0.044658937 -0.103392795 0.018600456 -0.01545098 0.12321284 0.132417 4.8508523e-06 0.2033884
0.03214584 0.11506307 0.09928448 0.10458532 -0.15546411 -0.12377988 -0.02823891 0.18967624
-0.036135774 0.15725768 0.16413103 0.21213046 0.118498586 0.0811189 -0.07970693 -0.008312848
0.18290022 0.020728922 -0.05825284 -0.028633464 0.043362424 0.12623413 -0.19205764 0.20736481
0.16752836 0.01352568 0.041113824 -0.07271952 -0.12015984 0.16400388 -0.14489897 0.03689114
-0.02171623 -0.13171779 0.16160978 0.13391846 0.054447286 -0.053420126 -0.15425725 -0.07607534
0.05602811 -0.09000669 0.19407257 0.11585992 -0.13234946 -0.1957438 0.19921446 0.12228392
0.030118968 0.01464576 0.04449524 0.13387363 0.053713705 -0.033656903 0.102355 -0.030086346
-0.059385497 -0.13019727 0.03440567 -0.055015035 -0.041186504 0.15164407 -0.16687164 -0.05059602

0.bias f4 [256]
00000000: 84a7 45be e90c 15be 7ee0 24bc 2174 df3c
00000010: cf52 683d abd0 c9bd b907 4e3e af42 153a
00000020: a4a2 85bd c2ed 233e 7f73 f43d 143c b7bd
00000030: d1d3 b93d 751c 81bd 3509 fc3d 24f3 a13d
00000040: d2a0 e2bc 1f0d 30be d0db 8f3d 4a74 0e3e
00000050: 9142 193d 1a5f d9bd bebd 3e3d 44ec bc3a
00000060: 6449 d83d b8bf 7ebb 9a1d a3bd a361 54bd
00000070: 73e1 293e ca1c 483e 6472 a03d 8cc3 cf3d
00000080: 4de0 01bd b925 ae3c e1d4 763d 750f 343e
00000090: e423 34bd aece 9e3b 8811 97bd 2ffc 4a3e
000000a0: e740 e5bd 505c f9bd be9e 98bd 5d64 0c3d
000000b0: d8c0 1e3d a95d 073e 6893 413d a930 aa3d
000000c0: 3847 ab3d 7393 2ebe b6c3 dabd ebac af3c
000000d0: a99c e0bd 02c0 2dbd b920 2a3b 0e19 4e3e
000000e0: f2ae 0abe 9d45 b63d 2ab1 6e3d 6d4f fa3d
000000f0: 01da 153e e71d 493e 48a2 b03c 49cc 8f3c
00000100: 3648 853d 5135 563d 61cc cc3c e93d a73d
00000110: 5c56 0d3e 8fce e0bd 1b42 89bd a2cb cd3d
00000120: a3df a93d 971c 023e a411 2b3d 9255 2a3e
00000130: 307e 28be 9767 d5bc 437a 143e e03f 183e
00000140: afa1 c73d 2c90 15be 8383 28be 356a 2a3e
00000150: aea7 ed3d 9f35 39bc 7e67 4abe 64ed 76bc
00000160: 671b 003e 0bfb c03c c218 f23d 32ce e6bd
00000170: 151f 73bd 9e33 183e d944 1dbd f0f7 b2bc
00000180: d22d 133e b4b5 1fbe df85 0c3e 6878 103e
00000190: 95f2 cb3d f5c3 5f3d 5d1c d1bd eed5 4a3b
000001a0: eaef b23d c0c1 18bb c7d9 013e 436d adbc
000001b0: ad95 0cbd 0677 193d d74d 3dbe 47d3 033e
000001c0: 75df 51bd 682d 263c 0ec9 303e 8bde 43bd
000001d0: 9b36 dc3d 285a 4fbd 5abb 0f3e 77b6 44be
000001e0: 20d8 8abd 9d27 0a3e 36e6 193e 7f45 383e
000001f0: c2e6 393e ff48 753c 5c66 02be cb21 43be
00000200: 18b5 2abe a00a bb3d 5814 1dbe 8be1 89bd
00000210: 188c 54bb 3784 223c c369 113e 95fa ad3d
00000220: 5e44 0a3e 77cc c13c 2006 763d 6e63 cb3d
00000230: 2be3 29bc ec15 2abe 50c3 3bbe a4bd c3bd
00000240: 48b8 2f3e 4c45 aabd 38ed 8d3d 1d49 a53d
00000250: a6b9 9fbd aebb d83d 89d9 fa3d cb2b 87bd
00000260: 9a0a 263e 0e49 adbc 4114 3fbe 5d58 f13d
00000270: 47be 18be 9268 a43b 461d cabd ccbe 4a3e
00000280: d26a 1b3e bca0 e0bd 36d8 d73d 4238 d0bd
00000290: 473f 4d3c 9d93 f03d 77fc c23d 75ac a33d
000002a0: d3b4 8cbc 2799 773d e288 ddbd cf85 203e
000002b0: 130d c5bc 6d72 35bc 5035 2d3e 03ff 773d
000002c0: aae0 e4bd fd52 043e 4fc6 483e a7d2 4b3e
000002d0: 7cd1 adbd 683a 5cbe d43a 36bd ec7d 64bc
000002e0: f6c6 02be 170b 83bd bccf 37be 3e8f 16ba
000002f0: 5cd8 babd fbab 26be f11f fbbb 2dcc 0cbe
00000300: 8374 19bd c3d1 963d 1a07 43be aa5f 54be
00000310: 3573 953d c9b9 bbbc 77b3 ee3c f0dc 843d
00000320: 976e 24be 1b12 083d d5f7 57bc 041a 233e
00000330: 0748 45bc a018 373e 30c0 32be 5002 073e
00000340: 1c0a bfbc c96f 08be faf6 0f3e cdb6 61bd
00000350: 4297 27be 27e6 08be 64ec b9bd e35d 7ebd
00000360: 1a12 da3d 1040 27bd f917 43bc 3a9b 40be
00000370: a47a 44be 7597 d3bc 6e78 15be 84e6 1f3e
00000380: 7464 2f3e 4c37 5b3e cad4 5e3d 9ae0 14be
00000390: 473a d03d 488a 13bb 1ff6 613d a0b4 50bd
000003a0: 9830 0dbe a15d 8bbd 5351 35be 3d25 47be
000003b0: c7ab 11be 3a63 4dbd 5209 3e3e 638d 423e
000003c0: 21a3 1c3e 64eb f93d e768 0d3e 7e35 c83d
000003d0: 8a4d 38be 07ef 66bd d294 a73d ec96 0e3d
000003e0: 08a7 97bd 29c7 4bbd 225a 1dbe 4acc 27bd
000003f0: d22e 823d 2a51 213e d705 2bbe 4abb 923d
-0.19302183 -0.14555706 -0.010063289 0.027277054 0.056719597 -0.098542534 0.20120133 0.00056938356
-0.06525162 0.16008666 0.11936092 -0.08947006 0.09073604 -0.06304256 0.123064436 0.079077035
-0.027664576 -0.17192505 0.07024348 0.13911548 0.037417 -0.10613842 0.04656767 0.0014413674
0.10560873 -0.0038871597 -0.079646304 -0.051850926 0.16589908 0.19542232 0.07834318 0.101447195
-0.03170805 0.021258222 0.06026161 0.17584021 -0.04397954 0.0048464155 -0.07376391 0.19822763
-0.1119402 -0.1217581 -0.07452153 0.0342754 0.03875813 0.13219322 0.04725972 0.083100624
0.08363193 -0.17048435 -0.1068186 0.021444758 -0.109673806 -0.04241944 0.0025959446 0.20126745
-0.13543299 0.088999964 0.058274426 0.122221805 0.14633943 0.19640313 0.021561757 0.017553465
0.06507914 0.05229694 0.0249998 0.08166105 0.13802475 -0.10976898 -0.06702062 0.100486055
0.082946084 0.12706219 0.04176487 0.16634205 -0.16454387 -0.026050372 0.14499764 0.14868116
0.097476356 -0.14605778 -0.16456418 0.16642077 0.11604248 -0.011304288 -0.19766042 -0.015071247
0.12510453 0.023557207 0.118211284 -0.112697974 -0.059355814 0.1486344 -0.038395736 -0.021846741
0.14372948 -0.15596658 0.13722943 0.14108431 0.09958378 0.05463024 -0.10210488 0.0030950266
0.08737166 -0.0023308843 0.12680732 -0.021170264 -0.03432243 0.037467025 -0.18486725 0.12873565
-0.051238496 0.010142662 0.17264196 -0.047819655 0.10752603 -0.05062309 0.14036313 -0.1921023
-0.06779504 0.13491674 0.15029225 0.1799526 0.18154433 0.014971017 -0.1273436 -0.1905586
-0.16670644 0.09132886 -0.15339792 -0.06732472 -0.0032432135 0.009919218 0.14200501 0.0849506
0.13502643 0.023657067 0.060064435 0.09931074 -0.0103691025 -0.16609925 -0.18336225 -0.095576555
0.17160141 -0.083139986 0.069300115 0.08070586 -0.077990815 0.10582672 0.12248523 -0.0660015
0.16214982 -0.021153 -0.1866007 0.11784432 -0.14916335 0.0050173486 -0.09868865 0.19799346
0.15177467 -0.10968158 0.10539286 -0.1016698 0.0125272935 0.11746905 0.0952081 0.07991878
-0.017176067 0.06044879 -0.10817124 0.15676044 -0.024054086 -0.0110746445 0.16914868 0.060545933
-0.11175664 0.12922283 0.19606899 0.19904576 -0.084872216 -0.21506655 -0.044489697 -0.013946038
-0.1277121 -0.063985996 -0.17950338 -0.00057433906 -0.091232985 -0.16276543 -0.00766372 -0.13749762
-0.03746463 0.073642276 -0.19045678 -0.20739618 0.072973646 -0.022915738 0.02913831 0.06487453
-0.16057812 0.03322039 -0.013181646 0.15927893 -0.012041098 0.17880487 -0.17456126 0.13184476
-0.02332025 -0.13323893 0.14059058 -0.055105973 -0.16366294 -0.13369046 -0.09078291 -0.062101256
0.10647984 -0.04083258 -0.011907571 -0.18809214 -0.19187409 -0.025829056 -0.14596722 0.15615278
0.17128164 0.21407813 0.05440215 -0.14538804 0.101673655 -0.0022512842 0.05516636 -0.050953507
-0.13788068 -0.06804968 -0.17706804 -0.19447799 -0.14225684 -0.050143458 0.18558243 0.18999247
0.15296604 0.122031 0.13809548 0.09775828 -0.17998329 -0.056380298 0.08182682 0.0348119
-0.074049056 -0.04975048 -0.15366414 -0.04096631 0.063565865 0.15753618 -0.16701446 0.07164629

2.weight f4 [256, 256]
00000000: 7d57 e2bb bb66 40bd 33d4 94bc a31e 9dbc
00000010: 78c0 183d 0804 803c 00b2 08bd 1e1f 0f3d
00000020: fb03 74bd 2237 02bd cb09 a33c 1223 20bd
00000030: cae7 19bd 5e0d c5bc 78a3 c63c 522f 01bb
00000040: d66d a43a cdb6 85bd 59c3 16bc 3bff eb3c
00000050: f190 3dbd d329 f43c 4daa 4fbd 8a2e 4f3d
00000060: 9c83 5b3a 9085 5bba 5af3 85bd 3d89 d43c
00000070: e8fe 89bc 128d 41bc adbf 2b3d 45f5 82bb
00000080: cd6c 253d 9240 083d c9a4 dbbc 44a0 28bd
00000090: 9f19 bf3b 6786 223d 4765 88bd bfd2 783d
000000a0: 14a8 e73c 22b4 3e3d d800 37bd 74b0 42bd
000000b0: cd0a 98bc a813 f73b 5469 8cbd 47a7 09bd
000000c0: b334 123d e16a 623d 6575 23bc ff67 5e3c
000000d0: 8662 97bc 9c47 0fbd 89f4 e0bc 6bc5 193d
000000e0: 5bfe 653d f9c6 e2bc b4de 723d 0cd4 eebc
000000f0: df0e 5b3d c0ae 46bc 026a 02bd 0311 973c
00000100: d82d a83c b835 5a3c 75e9 173c d9e5 b0bc
00000110: 584b 723c 843d 313d 41fa 02bd b7e0 1dbd
00000120: a59e 7fbd 3561 553d 6a58 f9bb 7690 1f3d
00000130: 76a1 133d f91d 3bbd c44f a33c 2cc1 3a3d
00000140: 546b f9bc 2543 1fbc 8d23 6c3c a0e6 44bd
00000150: 60bf d3ba a45c 59bd 1f98 c2bc 39b7 783c
00000160: 469e 593d 457a a3bd e92b 363d a87f 653d
00000170: 4bf8 553c 08bc 4b3d b7f1 473d 0730 c23b
00000180: cdc6 02bd c4b8 433d 3719 57bd 9f8a df3c
00000190: a850 3bbc 329a 59bd 6ee0 e4bc ebe1 283d
000001a0: 6308 923c 601a 923c 5d7f 803d 00d4 4e3d
000001b0: a5de 69bc 1720 e4bb f859 23bd ab59 163d
000001c0: 57f8 063d c72e 5f3d 1be3 bc3a 3277 e63c
000001d0: a892 6b3d 2a4a edbc 89a4 42bc 3d94 6abd
000001e0: b3da 64bd e2f4 fe3c 36de 26bd 536c cf3c
000001f0: dcba 203d 32d5 13bd 793b 5c3d fe87 6abd
00000200: 1aa7 69bb d036 363d fc96 623d 3a45 ba3c
00000210: 2b40 d43c 7aae 1c3c 6b60 53bd a93a b53c
00000220: cf39 33bd 5f96 8dbc 1794 75bd 625e a83c
00000230: b77c 1b3d 02eb 34bd 8a97 753d 3c7e 273d
00000240: c413 d63b 7b34 773d 78c7 673c e7ab 033d
00000250: 4167 723d b216 f23c c221 f2bc 4a12 023d
00000260: 2a00 643d f136 02bd 5c28 843d 7105 393d
00000270: 659d e23c 2048 ca3c 02e2 0f3c 3a01 883c
00000280: 9207 263d d34b 1fbd 8524 12bd a877 3cbd
00000290: 190e 3d3d e283 11bd 8bcb 1b3c cffc e7bc
000002a0: e4af d7bc b04c 6abd abdb 94bd 0f62 5dbc
000002b0: 57e9 a93c cb67 1abd b6c6 013d 5189 2abd
000002c0: e516 7f3d e65b 1bbd 753c 463c 66d0 23bd
000002d0: 3187 98bc 9808 1e3d c2b5 37bd edf3 043d
000002e0: 917e 513d 6f6a 7cbd 61a1 b53c 6db8 d73c
000002f0: e9ac dd3c b44d 6c3d 37b4 a83c 16e7 333c
00000300: 635e 92bc 5840 5ebd 0f4e 453a c823 213c
00000310: aa72 17bd 3c03 52bd 3844 5b3d 38a9 eabb
00000320: 9fdb 613c 8d18 4b3c cf5a 39bd 420b 313c
00000330: f9a3 4c3d 7b2f 18bd a2aa 2dbd 3dc6 d5bb
00000340: 6c2d 88bc c433 0cbd 90a7 08bd 9269 473d
00000350: 7826 313d 4347 453d 99f9 433b 1c5f a2bb
00000360: 4315 573d efd0 e7bc e782 5bbd ee4b e73c
00000370: baa4 1cbd 18e7 22bc 5a43 ccbc 7a25 4bbc
00000380: df47 86bc 1747 60bd a8af 0a3d 84c3 e1bb
00000390: 97cb 2c3c 0d7f 0dbd 8ca6 c33b 7b81 7e3d
000003a0: 9d68 76bd 0e3b 0a3d df8a 1d3d 86d5 59bd
000003b0: 6ed2 ecbc cacf 203d a7f4 01bd 3ac6 3cbd
000003c0: d78e 8cbc f454 553d d4e4 c23c 68e9 01bd
000003d0: ad58 bd3c 2d39 823c 6daa 6dbd dedd 4b3d
000003e0: 73b7 fbbb 2824 993c 7587 453d 44ca 3cbd
000003f0: dae2 47bd 5dd4 82bc 93ba 413d f796 84bd
-0.006907402 -0.04697297 -0.01816759 -0.019179648 0.037292928 0.015626922 -0.03337288 0.034941785
-0.05957411 -0.03179086 0.01990213 -0.039095946 -0.037574567 -0.024054226 0.02424787 -0.0019712043
0.0012544941 -0.06529007 -0.009201848 0.028808227 -0.046280805 0.0298051 -0.05069952 0.050581492
0.00083737983 -0.00083740894 -0.06540556 0.025944347 -0.016845182 -0.011813419 0.041930843 -0.0039965236
0.040386964 0.033264704 -0.026811974 -0.041168466 0.0058319117 0.039678957 -0.06659942 0.060747858
0.028278388 0.046558507 -0.04467854 -0.04753156 -0.018559838 0.007540185 -0.06856027 -0.033606794
0.03569479 0.05527771 -0.0099767195 0.013574599 -0.018479597 -0.0349804 -0.027460353 0.037541788
0.056150775 -0.027682768 0.059294418 -0.029153846 0.05348098 -0.012126625 -0.03183938 0.018440729
0.020529673 0.013318472 0.009271969 -0.021593975 0.014788471 0.043271556 -0.031976942 -0.038544383
-0.062407155 0.052094657 -0.0076094167 0.038956128 0.036042653 -0.04568288 0.019935496 0.04559438
-0.030446686 -0.009720598 0.014412773 -0.048071504 -0.0016155057 -0.053066865 -0.023754178 0.015180402
0.053129457 -0.079823054 0.04447547 0.056029946 0.013059686 0.049739867 0.0488145 0.0059261355
-0.031927872 0.047783628 -0.05251428 0.02728778 -0.011432804 -0.053125568 -0.027939048 0.041231077
0.017826265 0.017834842 0.062742926 0.050495148 -0.014274274 -0.006961833 -0.039880723 0.036706608
0.03295168 0.05448797 0.0014410944 0.028133009 0.05751291 -0.028966028 -0.011880049 -0.057270277
-0.05587263 0.031122629 -0.04073926 0.025320208 0.039240703 -0.03609199 0.053767655 -0.0572586
-0.0035652579 0.044485867 0.05531977 0.022738088 0.025909504 0.009563083 -0.051605623 0.022122698
-0.043756302 -0.017283617 -0.059955683 0.020552818 0.037960734 -0.044169433 0.059958972 0.04089187
0.006533118 0.060352784 0.014146678 0.03214636 0.0591805 0.029551838 -0.029557113 0.031755723
0.05566422 -0.031790677 0.064530104 0.045171205 0.027662942 0.024692595 0.008781912 0.016602147
0.040534563 -0.03889067 -0.03567936 -0.04601255 0.046156023 -0.035526164 0.009508978 -0.02831879
-0.026328988 -0.05720204 -0.07268461 -0.0135121485 0.020741148 -0.03769664 0.031683646 -0.04163486
0.062277693 -0.037929438 0.012099375 -0.039993666 -0.018619152 0.038582414 -0.044851072 0.03245919
0.051146094 -0.06162494 0.022171678 0.026333058 0.027059989 0.05769129 0.020593746 0.010980388
-0.017867273 -0.05426058 0.0007526585 0.009835191 -0.036974587 -0.051272616 0.053531855 -0.0071612857
0.013785272 0.01239599 -0.045252617 0.010805907 0.049961064 -0.037154656 -0.042399056 -0.006523876
-0.016623221 -0.034229055 -0.033362925 0.048684664 0.043249577 0.048163664 0.002990341 -0.0049551856
0.05251051 -0.02829787 -0.053591635 0.028234448 -0.038243033 -0.009942792 -0.02493446 -0.012399072
-0.016391693 -0.054755297 0.033858925 -0.0068897624 0.0105465865 -0.034544993 0.0059707817 0.0621352
-0.06015836 0.033747725 0.038462516 -0.053182147 -0.028908934 0.039260663 -0.03172746 -0.04608748
-0.017157955 0.05208297 0.023790754 -0.031716734 0.023113573 0.015896404 -0.05802386 0.049772136
-0.007681781 0.018693998 0.048224885 -0.046091333 -0.048800327 -0.015970403 0.04729707 -0.06474107

2.bias f4 [256]
00000000: 2d24 1dbd a3b1 3dbd abec 523d 2eff 3dbd
00000010: 5c6a 8d3a 9011 523d 0a2d fcba 26fc 81bc
00000020: aff6 ab3c 455e 2cbd 584f 6cbd 5acc 6bbd
00000030: bc70 493c af4c 0d3d 6c22 70bd 096c 2a3d
00000040: 7eae fa3c a9a8 1fbd f965 1dbd a4c8 913c
00000050: 3d20 22bd dbc2 cabc 6081 58bb e313 07bd
00000060: 3f46 ba3c 32a7 6ebd e151 7e3d 0eed 67bd
00000070: 16e8 85bc 32ad d0bc 908f 473d 4384 603d
00000080: c8ad cc3c 6073 903c 54ab 303d ed5c 203d
00000090: 5eff 80bd 1ba9 543c 2844 613c 9b35 f4bc
000000a0: 0260 2b3d e823 c83b c363 f2bc df1e ec3c
000000b0: bfaf 15bd 4a4b 58bb 3204 06bd 6466 c0bc
000000c0: c703 063d 8473 17bd 7eae 8d3b 9f57 5fbd
000000d0: f55c 0bbd 6717 c9bb 4ac2 83bd 03bd 70bd
000000e0: a5b8 5fbd 508c 62bd c60d 8b3d a462 0fbd
000000f0: a5bc c73b be27 673d 72f4 1bbc 564b 863c
00000100: 5cd4 ceba 3eb2 903d df68 3c3d aa57 70bd
00000110: b5aa ff3c f012 123d c18d d83c 210f dbbc
00000120: 7f23 9abc 506d 483c 9df4 84ba 50ec 61bd
00000130: 4f9e d83c ec65 f3bc 048a 2ebc 3163 09bd
00000140: 7870 363d 89e2 273d 59f8 673d 9dfe 643d
00000150: 56b4 4bbd f83f ebbb 404d 303d 491e 55bd
00000160: e7e8 4ebd c4ea b9bc e588 3e3d 738e f43c
00000170: 7a59 35bd 9659 223d ea5f 12bd 2d91 7abd
00000180: f94a 523d b5fe 55bd cff8 663d 916b 0dbd
00000190: 583b 743d 714c 6fbd 56dd 073b ead1 283d
000001a0: 2ff7 a0bc 9a71 5d3d 8fff 103d 00d6 0e3d
000001b0: 2451 4cbd 1ded 933c 9818 fa3a 3d68 843c
000001c0: a358 1c3d 7506 2dbd adf2 393d 331d 9e3d
000001d0: 60b4 483c 5278 f2bb dbbb e23b a76c 3d3d
000001e0: a6e4 693d a0a0 f43c e206 2abd 4da4 76bc
000001f0: 49fe 8d3d d67f 1bbb db8a 7e3c 4d37 cabb
00000200: e045 d5bc 4fa1 a63c 707a 5b3d ae97 4e3d
00000210: a9e1 e73c c988 0bbc ef5b 253d 3a70 3c3d
00000220: 385a 3f3c 3565 1a3b 7330 ae3c 3b74 7bbd
00000230: ad4d 39bd 218e 0f3d efb6 1a3d 2772 cb3c
00000240: eadd 77bd e899 5ebd f895 283d 7e43 83bd
00000250: 537c d5bb 1c5c 4a3d 5010 663d 0b05 793d
00000260: 4f79 2bbd b171 2c3d 5c90 92bb 0a7a 893d
00000270: fe17 6e3d 475f 1c3c 9abb 07bc ee47 b3bb
00000280: e74c 303d 2af2 63bb e502 123d 963b 2bbd
00000290: e12b 03bc 7253 0abd 2143 ffbc e590 203c
000002a0: 143e 083d cbf2 51bd 1b92 11bd fae6 98bc
000002b0: 8ad7 553d 39d3 523d c9f1 9bba b273 c7bc
000002c0: 38ed ecbc 0ae4 73bd 083c 22bd da22 5e3d
000002d0: d760 10bd 3ba9 59bc d987 923d f5c5 0b3d
000002e0: 40f3 923c 95d2 aebc 943a 36bd 8f21 05bd
000002f0: 9b5b 283d e0d1 6fbd b620 773d 2329 01bd
00000300: 1ed2 8e3c 139e e6bc aa81 b33b d0e3 3a3c
00000310: 330f cd3c a4de 513d c177 afbc 07ce 50bd
00000320: 990e d4bc 969a 593c d32b 2fbc 7feb 3f3d
00000330: 43a4 2e3c 6ef2 f53c 9f28 c9bb 7986 37bd
00000340: 6c4f bebc 198b 56bd 4373 fdbc bbd2 a43c
00000350: d6f6 023b 4c5a 8abc ae01 ba3b 4fe2 233c
00000360: 36ce b8bc b5fe 013a d993 613d a789 863c
00000370: 2c59 5abd 9e89 56bb 2949 c53c f187 e43c
00000380: cbca 2a3c 96dd 1cbb c22b 3b3d a3ad d8bb
00000390: 2745 8d3d f181 2c3d d5ab 65bd 9790 ebbc
000003a0: 349f 2abd bd09 4bbd 111d 84bc fc01 5dbd
000003b0: a37e 693b 3f8a c8bc 109a 7fbd 5772 1a3c
000003c0: de5e 213d 5378 5a3c c736 a83c a1ed f23c
000003d0: 0f2f edbc fbd2 e73c 5f20 243d 0d10 5e3d
000003e0: 0c0c 8bbb a7cb 903c eb39 7d3b 73a4 723d
000003f0: 041d 92bb 9599 9dbc 9581 c13c c7f7 b73c
-0.038364578 -0.046311986 0.051495235 -0.046385936 0.0010789144 0.05128628 -0.0019239497 -0.015867304
0.020991651 -0.04208209 -0.057692856 -0.05756793 0.012294944 0.03449696 -0.058626577 0.041606937
0.030600782 -0.038979206 -0.038427327 0.017795868 -0.039581526 -0.024751117 -0.0033036098 -0.03297795
0.022738574 -0.05826492 0.062089805 -0.056622557 -0.016346019 -0.025473211 0.048720896 0.054813635
0.02498521 0.01763314 0.04313214 0.03915112 -0.062987074 0.012979771 0.01374916 -0.029810717
0.041839607 0.006107796 -0.029588586 0.028823314 -0.036544558 -0.003300386 -0.032718845 -0.023486324
0.032718446 -0.0369754 0.0043237796 -0.05452692 -0.034024198 -0.006136823 -0.06433542 -0.058774006
-0.05461945 -0.055309594 0.067897364 -0.03500618 0.006095486 0.056434385 -0.0095187295 0.016393345
-0.0015779841 0.07065247 0.04599845 -0.058677353 0.03120933 0.03566259 0.026434781 -0.026740612
-0.018815754 0.012233093 -0.0010143701 -0.055157006 0.026442675 -0.029711686 -0.010653023 -0.033541862
0.044540852 0.040987525 0.056633327 0.05590688 -0.04973253 -0.0071792565 0.04304242 -0.052030835
-0.05051508 -0.022694953 0.04651727 0.029853081 -0.044274785 0.039636217 -0.035736002 -0.061173607
0.05134103 -0.05224486 0.056389626 -0.03452641 0.059626907 -0.05842251 0.0020731292 0.041215815
-0.019649116 0.054063417 0.03539997 0.034872055 -0.04988207 0.0180574 0.0019080816 0.016162986
0.038170468 -0.042242486 0.04539745 0.07720413 0.012250036 -0.007399597 0.006919367 0.046246197
0.05710282 0.029861748 -0.04151047 -0.015053821 0.06933267 -0.002372732 0.015536035 -0.006171143
-0.026034296 0.02034059 0.053583562 0.05043762 0.028305845 -0.008516499 0.040370878 0.046005465
0.011679225 0.002355886 0.021263337 -0.061390143 -0.045240093 0.035047654 0.037772115 0.024834706
-0.060514368 -0.054345995 0.041158646 -0.064093575 -0.0065150647 0.04940425 0.0561679 0.060795825
-0.041863736 0.042100612 -0.0044727754 0.0671273 0.05812835 0.0095442 -0.008284474 -0.005471221
0.04304209 -0.0034781792 0.03564729 -0.041804872 -0.008006067 -0.033770986 -0.03115994 0.009800171
0.033262327 -0.051256936 -0.035539728 -0.018664826 0.052207507 0.05147097 -0.0011897619 -0.02434716
-0.028921708 -0.059543647 -0.03960803 0.054232456 -0.035248604 -0.013284977 0.07154817 0.034124333
0.017938256 -0.021340648 -0.04448946 -0.032502707 0.041102987 -0.05854976 0.06033393 -0.03153337
0.017434176 -0.028151548 0.0054781036 0.011406854 0.025031662 0.051237717 -0.021419408 -0.050977733
-0.025885867 0.013281485 -0.010691601 0.046855446 0.01065928 0.030022826 -0.0061388756 -0.044805977
-0.02323123 -0.052378748 -0.03093875 0.020120015 0.0019983551 -0.01688876 0.0056764698 0.010002687
-0.022559267 0.0004958914 0.05507264 0.01642306 -0.053307697 -0.0032735835 0.024082737 0.027896853
0.010424326 -0.0023935786 0.045696028 -0.006612496 0.068979554 0.04211611 -0.056072075 -0.02875547
-0.041655734 -0.049569834 -0.016127141 -0.05395697 0.003562846 -0.024479983 -0.062402785 0.009426675
0.039397113 0.013334352 0.020533932 0.029654326 -0.028953103 0.028298846 0.040069934 0.054214526
-0.0042433795 0.017675234 0.0038639258 0.059238862 -0.0044590253 -0.019238273 0.02362136 0.022457017

weight f4 [2, 256]
00000000: 0019 bdbc 8fe8 48bb 231e 8a3b 2049 fa3c
00000010: 886c 673b 9009 f33c 9a32 5abd 9e77 c03b
00000020: 2676 4aba 351b 763c 35fb b1bb cd05 34bd
00000030: 974c 493d bae6 a63c 0137 d9bc 37c0 5f3d
00000040: 1bcd 3e3d 7243 84bd e73c 553c 53fc 1abd
00000050: 2a15 41bc 6488 163d 3cf7 18bc fb8b 7a3d
00000060: d098 a83c 5d5f c83c 7d28 d7bc 7938 5bbc
00000070: 6ebd 963d 8641 a9bd 03d0 8fbd ccb6 0f3d
00000080: de85 643d 8b7b 273d f563 49bc 73d9 bfba
00000090: 8259 d1bc 3303 e8bb 135e 36bd f395 f93c
000000a0: 6ed6 ca3c f72c 6bbd c546 8abc 3380 88bd
000000b0: 1f32 093d 2f73 6c3d b62d 53bd 62fc 4b3d
000000c0: 7b84 51bd b7dd 253d fad1 30bd ca37 5a3d
000000d0: fdcd 113c 11d4 9cbc 6f34 2d3d 742d 83bd
000000e0: 5d62 763a 188a 673d ee1a 6dbb 6b43 2fbc
000000f0: 7dda 1cbd 4721 56bd 2c8e e1bc d48e 473d
00000100: 3389 58bc fa9f 123d 5843 a2bd 7b92 a8bc
00000110: ed9a 70bd 067c 2bbc 8c91 f0bc d69e 3fbd
00000120: 96a2 dabc 2926 493a b04f 64bd 6506 2cbc
00000130: c5c8 283c 4559 da3c bd48 b8bd 234d 703d
00000140: 1c4c 64bd 2181 c4bc 29f7 a8bd 67f8 8cbd
00000150: f41a 0abd ce4f 47bd 67f1 803d 0da0 1cbd
00000160: be6a 9c3c 9da0 233d d93e 483d 4af3 73bd
00000170: 71be aa3c 3931 03bd 151f 4aba 8bae 0dbd
00000180: be1c abbc 867c 54bd 1b25 083d d8f2 e53c
00000190: 188e 133c 57d0 d73c 5599 6d3c ee6d e8bc
000001a0: 76e1 323c 5ef8 e6bc 6375 60bd 5238 1f3d
000001b0: b399 17bd b335 6b3c 9ef0 f83c c974 723d
000001c0: 5715 0c3d 43e0 463d c89a 1fbd 5250 c5bc
000001d0: 2dc3 ebbc 4095 1fbc 9b1f 4bbd 82a4 0bbd
000001e0: 7cd7 6bbd 3ccf bb3c b62b 573c 6cd7 50bd
000001f0: fb06 84bc 5892 a73c 0175 b1bc dcb7 49bd
00000200: fb58 1bbd 92ff 54bd d473 033b 7cff 83bd
00000210: cca2 943d eec6 aabc f67f 5ebd df36 3dbd
00000220: 1671 793d 5d27 2b3c 01f3 813a 3f27 9a3c
00000230: 361a 97bc 74da 5bbd 698c b0bc 6129 ef3c
00000240: 4142 0a3d 77c3 e13c 814a 5e3d ba88 debc
00000250: bdbf 00bd 5f11 9dbb 061c 5f3d 6d7c 0b3b
00000260: 4a98 15bd 6d01 853d 9fba f73c 390e 5bbd
00000270: 7114 53bd d68a 03bd c6d3 ec3c 3998 183b
00000280: 00e9 5cbd 7ad7 eabd df43 073c 10ad 063d
00000290: ebd8 51bd 0395 683d b9dd 92bc 8758 d43c
000002a0: 34bf 89bd 8e67 493c 92a5 8bbd 381a bcbc
000002b0: 4e59 40bd 76de 24bd 36b6 a4bc 9077 3ebd
000002c0: b918 963c c64c 973a 87c5 2ebd b0d4 083d
000002d0: d2a9 30bc 0b2f e23b 6e55 4bbc fb80 c9ba
000002e0: 93b1 2b3d a565 12bd f620 1abd 9bbc b73c
000002f0: 972c 523d 8bf0 dabc d677 fcbc 2b8f 2cbd
00000300: ee9d a3ba 90c3 7dbc ee80 f8bc 7964 03bd
00000310: f1b7 81bd 1179 8abd f43d 293d a872 17bd
00000320: b97b 19bd 36b6 403d f939 0e3d b269 96bc
00000330: 3daf 233c ff35 58bd ff66 f9bd b06f 53bc
00000340: b82e 9fbc 540e 09bd 1c0f f1bb a896 cdb9
00000350: c5c2 703d db7e 7e3d a813 21bd dcc2 16bd
00000360: e2ea afbc b70c 56bd 3a8b 50bd d1d7 21bc
00000370: fa8e 5a3d 7f11 0bbd 6c4f 733d cccf 983c
00000380: 0aca 0bbd f404 543d 8e1b 923d 43ab 133d
00000390: 85e9 61bd fd76 60bd d2fe 08bd 44b3 d93c
000003a0: c80a 513d cc0b 943b 1b2f 66bb 962a 2dbd
000003b0: 421e ce3b fd12 f43c 94be 563c 0946 5a3d
000003c0: b12e 4d3c 7807 64bd 667e 853d 270a 683d
000003d0: 1bca 5dbd 270d e3bc 066e 1f3c ce65 403d
000003e0: 758a 5c3d dbc4 2abd dab8 68bd ad9e 483d
000003f0: d8fb 5ebc 4491 39bc 47d0 02bc 60c8 4f3d
-0.02308321 -0.0030656194 0.0042150184 0.030552447 0.0035312492 0.029667646 -0.053270914 0.0058736345
-0.0007723294 0.015021135 -0.0054315575 -0.043950845 0.049145307 0.02037369 -0.026515486 0.05462667
0.046582323 -0.06458177 0.0130150085 -0.03783829 -0.011784831 0.036751166 -0.009336289 0.061168652
0.02058068 0.024459535 -0.026264424 -0.013380163 0.073603496 -0.08264451 -0.07022097 0.035086438
0.05579173 0.040889304 -0.012291898 -0.0014636948 -0.025555376 -0.0070804595 -0.04452331 0.03046701
0.024760451 -0.05741593 -0.016879449 -0.06665077 0.033495065 0.057727035 -0.051557265 0.049801238
-0.051151734 0.040494647 -0.043169 0.05327586 0.008899209 -0.01914409 0.042286333 -0.06405154
0.00093988125 0.05652818 -0.0036179381 -0.010697226 -0.038294304 -0.05227783 -0.027533613 0.048720196
-0.013216305 0.035797097 -0.07923001 -0.02057766 -0.0587415 -0.010466581 -0.029366277 -0.046782337
-0.026688855 0.0007673228 -0.05574006 -0.010499571 0.010301773 0.026653895 -0.08998249 0.058667313
-0.055736646 -0.023987355 -0.08250267 -0.068833165 -0.03371711 -0.048660092 0.06296044 -0.038238574
0.019093867 0.039948095 0.04888806 -0.05955819 0.020842763 -0.032029364 -0.000771032 -0.034590285
-0.020887729 -0.051876567 0.03323851 0.028069898 0.009006046 0.026344461 0.014501889 -0.028372731
0.010918012 -0.028194603 -0.05479945 0.03887207 -0.037011813 0.014356065 0.030388173 0.059193406
0.03420004 0.048553716 -0.03896597 -0.024086151 -0.02877959 -0.009740174 -0.04959069 -0.034092434
-0.05757855 0.022925965 0.01313298 -0.050986692 -0.01611661 0.020455524 -0.021662237 -0.049247608
-0.037926655 -0.052001543 0.0020058053 -0.06445214 0.072576135 -0.02084681 -0.05432125 -0.046194907
0.060898863 0.010446397 0.000991434 0.018817542 -0.018445116 -0.05367513 -0.021551328 0.029194536
0.03375459 0.027559025 0.05427027 -0.027164806 -0.031432856 -0.0047933306 0.054470085 0.002128388
-0.036522187 0.064944126 0.030240355 -0.05348036 -0.051533166 -0.032114826 0.028909575 0.002328409
-0.053933144 -0.1146688 0.008255928 0.03287989 -0.05123226 0.056782734 -0.017927991 0.02592112
-0.06725922 0.012292756 -0.068186894 -0.02296172 -0.046960168 -0.040251218 -0.020106416 -0.046500742
0.018322336 0.0011543266 -0.042668846 0.03340596 -0.010782676 0.0069025806 -0.012410505 -0.0015373522
0.041917395 -0.035741467 -0.03762909 0.022428801 0.051312055 -0.026726028 -0.030818861 -0.042128723
-0.001248298 -0.01548852 -0.030334916 -0.03207824 -0.06333912 -0.06761373 0.04131885 -0.03697458
-0.037471507 0.04704877 0.034723256 -0.018360946 0.0099905105 -0.05278587 -0.12177848 -0.012905046
-0.019431457 -0.03346093 -0.0073565375 -0.00039212895 0.058779497 0.062132698 -0.039325386 -0.036806926
-0.021474306 -0.05225822 -0.050914027 -0.009878115 0.05335901 -0.033952232 0.059401914 0.018653773
-0.034128226 0.051762536 0.07134162 0.036052 -0.055154342 -0.054800976 -0.03344614 0.026574738
0.051035672 0.004518008 -0.0035123292 -0.04227694 0.006290228 0.02979421 0.013106961 0.053289447
0.012523339 -0.055671185 0.06518249 0.056650307 -0.05414782 -0.027716232 0.0097308215 0.04697209
0.05384298 -0.041691642 -0.056816913 0.04897945 -0.013609849 -0.011326138 -0.0079842275 0.050728202

bias f4 [2]
00000000: 68bc 553d 6c44 753d
0.05218163 0.059879705

weight f4 [1, 256]
00000000: 2f7f 403d d35e 5b3d b561 64bd c93f 88bc
00000010: ef8d 93bd 3d8b 11bc da6f 5d3d bc40 ab3d
00000020: a2bc c9bc f3e4 813c 41ea 553d 83e8 2fbd
00000030: c5e0 4cbd 0375 513d e4dd c13c 0b7f 6cbd
00000040: 7663 cdbc 1be7 293d a1e2 f33c 09c2 473d
00000050: a2ea cc3c bd0f 8abc 9b23 e7bb e70c a2bc
00000060: a854 003c 9f23 a23c a439 153d 3c4b ef3c
00000070: 2c0c 11bd 4409 48bd 6bec 5fbd 723e 6e3d
00000080: 0240 03bd a8fa 16bd d7d7 b43c 86f6 46bd
00000090: 9606 39bd c43f 2c3d fc7a e93c 5b8d 783d
000000a0: e71d a9bc 3ca3 4f3c cf0c 9fbc 15fd 463d
000000b0: c2bf 773c 23e1 683d 05ba 62bd 1dbd 0e3d
000000c0: 2a04 593d 9450 44bd 1d08 6c3d 8dc5 8fbc
000000d0: 7221 e1bc 85a1 1dbc 998d 2d3b e905 0cbd
000000e0: a9c2 0b3d 8635 1abc a049 0fbb a70d 30bd
000000f0: 98d5 973b c392 7d3c e470 7d3d b8bf 783b
00000100: 2203 083d 5d53 6c3c 2c45 4abc 0f36 03bd
00000110: 4571 24bc ee37 b93c 0a59 bb3c 1e88 d23c
00000120: c29b f33c 677c aeba 272d d4bc b799 45bd
00000130: e109 683d 6470 753d b46e dd3c 9f4f fb3c
00000140: 5a56 f4bc f371 27bd 0208 96bc e1d3 0dbd
00000150: d92f 86bc df63 3bbd 2eb4 113c 5282 16bd
00000160: 6d25 8ebc 6f0a 9c3c 877e 7cbc f70a 0a3d
00000170: 9184 763c d37e c4bc dd72 75bc f458 84bc
00000180: e251 333d 9fdc 36bd c7cd 5c3d 5153 89bc
00000190: a0d1 693d 7e0f b83b bc6e 4f3d 2d75 6dbd
000001a0: e9a6 0ebd b19e 9c3c fcdb 62bd d1f2 c03b
000001b0: 566d c4bc 90e4 1c3c 8053 1a3b 9e4e 6a3c
000001c0: 1845 70bd 8435 61b8 fb5b 303d a061 823d
000001d0: 7270 8bbc 1e09 2cbd e49f 15bd 1b2e 133d
000001e0: e2b2 2d3b ae33 5fbb ff4c 413d 2253 de3c
000001f0: 02b1 313d 97a2 563d 49fa 13bd b89c 3c3d
00000200: 35c4 b4bc 53ad 023d 7e5d 3e3d 0ee2 803d
00000210: f37f 403d 0779 373d b1d7 7c3d a1eb 8c3d
00000220: c086 46bd d6ee 1c3d 5095 663d f783 65bd
00000230: d24d 3b3a 8ddd 4fbd 6069 e73c 05f3 233d
00000240: f834 b0bc 9e96 10bd 7019 5e3c 0f1f 84bc
00000250: 8ff4 4b3d 6df7 00bd 0ad8 cc3c 416b 423d
00000260: c480 10bd 3555 313d a04d 88bc 15f0 53bc
00000270: 9ae7 083c 6f67 323d 3867 873d 061e 5d3c
00000280: 9a56 0bbc f3b6 823d cfd4 cfba 2a01 6e3d
00000290: eed2 273d 4882 763c ceec 0e3d 376a 723d
000002a0: c25d c53c f48f 523d 1ff6 99bd 8e31 2fbd
000002b0: f76b a43c c824 0a3d 4e9e e23c 372b c2bc
000002c0: eba3 05bd ba15 39bd d9b4 003d 2581 d8bc
000002d0: 2919 22bc 107f 243d bcba b93b ebd4 8dbc
000002e0: bee8 15bc 4f0a cf3c a745 3d3d 04e1 46bd
000002f0: 496d 303d 7f32 733d 0876 3e3d 10c6 6b3d
00000300: 06d2 72bd 6dd2 c33c ab93 89bc 01bf 1cbc
00000310: 3483 303d d3b4 60bc 5bc3 48bd 5916 bdbc
00000320: 90eb b93a 3149 5bbd 8a4a ca3c b5d7 21bb
00000330: 6826 453d 9d65 7abd 6173 02bc b2b2 32bd
00000340: 64fd 693d b989 77bc 29a6 39bd c299 053d
00000350: 8bf9 6abb 741a dabb 8251 c03c 463d 54bc
00000360: 26a3 01bd 4caa cf3c b8c1 96bc 5d46 13bb
00000370: 56c0 1dbc 28cd b1bc f382 8b3c a6aa da3c
00000380: 660b 00bd 979e f03c e403 873d be61 f9bc
00000390: 107c 3c3d c85b 413d 153a d33b 2207 1abd
000003a0: 8e05 80bd ef70 a33c 430d f9bc 44e9 623c
000003b0: d2dc 5dbd 83a2 3fbc dd40 39bc 376e 1b3d
000003c0: de28 32bd f74e 31bd f8f5 9dbc 2ed7 a73c
000003d0: edd4 bdbc 1974 6cbc 51a5 de3c 18e6 2c3b
000003e0: 1de4 17bd f565 b93c f995 753d d1fc 9c3c
000003f0: 7279 2bbd f962 8fbc eff4 32bd 7fa6 72bc
0.04699629 0.05355723 -0.055757243 -0.016631978 -0.07204806 -0.008883295 0.054061748 0.083619565
-0.02462608 0.015856242 0.052225355 -0.04294635 -0.050019044 0.05113698 0.023665376 -0.057738345
-0.02507184 0.041480165 0.029771151 0.04876903 0.025014225 -0.016853208 -0.007053805 -0.019781543
0.007832684 0.019792376 0.036431924 0.02921068 -0.035412 -0.04883696 -0.054668825 0.05816502
-0.032043464 -0.03686014 0.022075577 -0.048574947 -0.045172296 0.042053 0.028501026 0.060681682
-0.020644141 0.012673195 -0.019415287 0.0485812 0.015121402 0.056855332 -0.055353183 0.03484832
0.052982487 -0.047928408 0.057624925 -0.017550254 -0.027481768 -0.009621029 0.0026482104 -0.034185324
0.03412119 -0.009412175 -0.0021863952 -0.04298177 0.0046336167 0.015476885 0.06187524 0.003795607
0.033206113 0.014424172 -0.012345593 -0.032033976 -0.010036771 0.022609677 0.022869606 0.025699671
0.029737357 -0.0013312221 -0.025900437 -0.048242297 0.056650046 0.059921637 0.027030326 0.030677615
-0.029826332 -0.040880155 -0.018314365 -0.03462589 -0.016380237 -0.04574954 0.008893056 -0.036745377
-0.01735183 0.019047944 -0.015411026 0.033701863 0.015046255 -0.023986256 -0.014980999 -0.016155697
0.04377926 -0.044643994 0.053907182 -0.016763361 0.05708468 0.005617081 0.050642714 -0.057973076
-0.034827147 0.019118639 -0.055385575 0.005888321 -0.023977917 0.009575978 0.0023548305 0.01430097
-0.058659643 -5.369402e-05 0.04305647 0.06366277 -0.017021392 -0.042000882 -0.036529437 0.03593264
0.0026504328 -0.0034057903 0.04719257 0.02713925 0.0433817 0.05240115 -0.036127362 0.046047896
-0.022066215 0.031903576 0.04647588 0.062931165 0.046997022 0.044793155 0.061729137 0.0688088
-0.04846835 0.03831371 0.05629474 -0.056034055 0.000714508 -0.050748397 0.028248489 0.040026683
-0.021509632 -0.03529989 0.013555869 -0.016128091 0.049793776 -0.031485964 0.02500536 0.047465567
-0.03527905 0.04329415 -0.016638577 -0.012935658 0.008355999 0.043555673 0.06611484 0.013495928
-0.008504534 0.06382551 -0.0015856269 0.05810658 0.040972643 0.01504571 0.034893803 0.059183326
0.024092559 0.051406816 -0.07517647 -0.04277187 0.020071013 0.033726484 0.027663376 -0.023702247
-0.032627027 -0.045186736 0.03142247 -0.026428768 -0.009893694 0.04016024 0.0056680124 -0.017313441
-0.009149728 0.02527347 0.046209004 -0.048554435 0.043072972 0.05937433 0.046499282 0.057561934
-0.059282325 0.02390405 -0.016794046 -0.009567023 0.043093875 -0.013714987 -0.04901443 -0.023081945
0.0014184583 -0.053536598 0.024693746 -0.0024695222 0.04813233 -0.061132062 -0.007962079 -0.04362745
0.057126418 -0.015108519 -0.04532448 0.032617338 -0.0035854306 -0.0066559855 0.023476366 -0.012954062
-0.03164973 0.025349759 -0.01840292 -0.002247236 -0.009628376 -0.021704271 0.017030215 0.0266927
-0.03126087 0.029372497 0.06592539 -0.030442115 0.046016753 0.04720667 0.006446133 -0.03760446
-0.062510595 0.019951312 -0.030401831 0.01384956 -0.05416567 -0.011696461 -0.0113069685 0.037946906
-0.043496005 -0.043288197 -0.019282326 0.020488348 -0.02317282 -0.014431977 0.027178438 0.0026382264
-0.03708278 0.022631625 0.05995748 0.019163521 -0.041863866 -0.017503249 -0.043690618 -0.014810204

log_std f4 [1, 2]
00000000: d6de 003e a3d2 163e
0.12585005 0.14728789

exp_avg f4 [256, 24]
00000000: f435 8eb8 0965 82b7 a2dc 1db8 3365 c938
00000010: 733f 98ba b248 3239 a2dc 1db8 3365 c938
00000020: 0d48 ff37 9403 d2b6 172b b63a 771a 3939
00000030: 2eb2 a4ba d531 9438 172b b63a 771a 3939
00000040: 00ec bb38 8547 7938 d72f abba fada 7937
00000050: 620b 9eba 0633 73b9 d72f abba fada 7937
00000060: 1baa 2d39 3aee 2637 57c0 3aba 0ddb 0db8
00000070: 20c0 ba39 3368 7738 57c0 3aba 0ddb 0db8
00000080: 26d4 7c39 8a02 8537 ab92 443a e835 0e39
00000090: ee1f d239 c49a 9a38 ab92 443a e835 0e39
000000a0: 67a8 2839 2b08 d237 199c 4cba e381 cc38
000000b0: 8819 e839 2bfd b238 199c 4cba e381 cc38
000000c0: 073b b13a f7bb 7d39 9cea 5dba 3c54 ef38
000000d0: cbf5 c83a 4b64 23ba 9cea 5dba 3c54 ef38
000000e0: 56f5 bf3a 1ae5 4c39 e06e 3f3a 03bf 74ba
000000f0: 5619 a13a 404d 9bb9 e06e 3f3a 03bf 74ba
00000100: 4958 a63a 00dc f238 f1fb fcba 32d8 30ba
00000110: 09d5 6f3a 31e9 7236 f1fb fcba 32d8 30ba
00000120: ea90 8bb8 fa52 f438 3dee f8ba f762 713a
00000130: abab 00b9 4698 5f38 3dee f8ba f762 713a
00000140: 7e9e 7f3a 3fa9 b839 4f2d 853b 88c1 953a
00000150: 6256 fc39 a0ac f1b9 4f2d 853b 88c1 953a
00000160: 0056 303a a967 bb39 f92c 0ebb 2d0f 7b39
00000170: cb2f c339 2ab5 d2b9 f92c 0ebb 2d0f 7b39
00000180: 1477 ad38 b51f 0b39 1292 353a e4f1 e4b8
00000190: cc0a bd39 a530 54b8 1292 353a e4f1 e4b8
000001a0: fee5 a239 3ebd 2939 2193 8e39 11ce 01b9
000001b0: 283b f839 f720 acb8 2193 8e39 11ce 01b9
000001c0: 8349 bc39 f190 0639 1ee4 023a 70fb bcb9
000001d0: bfde e239 eefa 3338 1ee4 023a 70fb bcb9
000001e0: dc77 813a 7ff9 d937 18d1 a2b9 04a5 e239
000001f0: bff8 34b5 12a5 77b9 18d1 a2b9 04a5 e239
00000200: f552 933a 9d82 6d38 bbb1 8b3a 88ee 8e39
00000210: 257b 2038 8057 7fb9 bbb1 8b3a 88ee 8e39
00000220: 82fb 823a f1d1 7d38 b9fa caba 1864 bcb8
00000230: 4e8c 0b39 39b1 8ab9 b9fa caba 1864 bcb8
00000240: bc1e e339 78f8 44b8 8b31 9a39 c7f6 49b9
00000250: 7cf7 2139 f6c9 df39 8b31 9a39 c7f6 49b9
00000260: 7fdc 9739 76d2 cdb8 dafd 8339 db49 e4b8
00000270: 8f3c 1cba 1110 4e3a dafd 8339 db49 e4b8
00000280: 9fd4 0539 23e5 eab8 ed7b 98ba b717 43b9
00000290: 91ea 76ba 82a3 803a ed7b 98ba b717 43b9
000002a0: 8c39 9d3a b01a 1439 d5d1 2f3b a869 7fb9
000002b0: 607e aeb9 7627 62ba d5d1 2f3b a869 7fb9
000002c0: 1b98 9b3a 8f0b ad38 a7b5 12ba df86 14ba
000002d0: 62f0 e0b9 36ba 44ba a7b5 12ba df86 14ba
000002e0: dce3 a63a c369 9938 56a0 e439 d896 44b9
000002f0: 57a6 05ba fc78 2cba 56a0 e439 d896 44b9
00000300: 6686 7e39 881b 23b8 7a86 5039 b622 10b9
00000310: f46a 7838 f858 3938 7a86 5039 b622 10b9
00000320: 5302 2839 c9ec 5db8 8c08 c6b9 5a98 9fb8
00000330: 42e1 1839 8369 1638 8c08 c6b9 5a98 9fb8
00000340: 3f1b 3d39 e471 44b8 a04b 8e38 9d15 a238
00000350: 494a 5239 ca25 7337 a04b 8e38 9d15 a238
00000360: 3163 5db9 40da dcb8 ab4d f5b9 cfae 9cb9
00000370: 1130 c939 27a6 ab38 ab4d f5b9 cfae 9cb9
00000380: 7ebb 31b9 c5f8 d3b8 7824 493a baa1 6f39
00000390: b04d c539 06fc ef38 7824 493a baa1 6f39
000003a0: 55b0 f9b8 03fd 80b8 c3f0 2639 d261 9e39
000003b0: 64e4 e539 2f7b e938 c3f0 2639 d261 9e39
000003c0: 6f25 b53a 43a7 03b6 f5f3 b0bb e4af 6739
000003d0: 3a9a ba3a 0a43 f0b9 f5f3 b0bb e4af 6739
000003e0: 2f47 143b 652d 9e38 1c2d bb3b ec60 b439
000003f0: 316e f13a e78b 13ba 1c2d bb3b ec60 b439
-6.781137e-05 -1.5544256e-05 -3.7637197e-05 9.603277e-05 -0.0011615589 0.00017002484 -3.7637197e-05 9.603277e-05
3.043192e-05 -6.2589042e-06 0.001389834 0.00017652834 -0.0012565309 7.066472e-05 0.001389834 0.00017652834
8.960813e-05 5.9432834e-05 -0.0013060522 1.4892541e-05 -0.0012057836 -0.00023193294 -0.0013060522 1.4892541e-05
0.00016561935 9.9498375e-06 -0.0007123998 -3.3821027e-05 0.0003561983 5.8986432e-05 -0.0007123998 -3.3821027e-05
0.00024111624 1.5856018e-05 0.0007498662 0.00013562257 0.0004007811 7.3721196e-05 0.0007498662 0.00013562257
0.00016084463 2.5037754e-05 -0.0007805243 9.751671e-05 0.0004426951 8.5348576e-05 -0.0007805243 9.751671e-05
0.001352162 0.00024197983 -0.00084654405 0.00011412098 0.0015332041 -0.00062329014 -0.00084654405 0.00011412098
0.0014645259 0.00019540303 0.00073025934 -0.00093363243 0.0012290876 -0.0002962146 0.00073025934 -0.00093363243
0.0012691106 0.000115804374 -0.0019301159 -0.0006746083 0.0009148871 3.6196545e-06 -0.0019301159 -0.0006746083
-6.655029e-05 0.00011650282 -0.0018991899 0.00092081673 -0.00012270983 5.330916e-05 -0.0018991899 0.00092081673
0.0009751095 0.00035221313 0.004064239 0.0011425475 0.00048129546 -0.00046095718 0.004064239 0.0011425475
0.0006726682 0.00035744652 -0.0021694286 0.00023942879 0.00037228907 -0.000401893 -0.0021694286 0.00023942879
8.271463e-05 0.00013267885 0.0006926368 -0.00010916943 0.00036056933 -5.0590043e-05 0.0006926368 -0.00010916943
0.00031070405 0.00016187594 0.0002719397 -0.00012379164 0.0004734632 -8.207739e-05 0.0002719397 -0.00012379164
0.00035912925 0.0001283323 0.00049930986 -0.0003604549 0.00043272038 4.2910622e-05 0.00049930986 -0.0003604549
0.000987764 2.5984597e-05 -0.00031054835 0.00043229025 -6.74172e-07 -0.00023617249 -0.00031054835 0.00043229025
0.0011239933 5.6626846e-05 0.0010657826 0.0002726207 3.826166e-05 -0.00024351291 0.0010657826 0.0002726207
0.0009993168 6.0515424e-05 -0.0015486098 -8.9831825e-05 0.0001330834 -0.00026453452 -0.0015486098 -8.9831825e-05
0.00043319713 -4.6961446e-05 0.0002941008 -0.00019260785 0.00015446352 0.00042684347 0.0002941008 -0.00019260785
0.00028965247 -9.814363e-05 0.000251754 -0.00010885644 -0.00059599517 0.00078606704 0.000251754 -0.00010885644
0.00012763076 -0.000112006695 -0.0011633612 -0.00018605484 -0.00094191084 0.0009814354 -0.0011633612 -0.00018605484
0.00119953 0.00014124322 0.002682795 -0.00024358055 -0.00033282023 -0.0008627096 0.002682795 -0.00024358055
0.0011870892 8.251436e-05 -0.00055965263 -0.00056658493 -0.00042903709 -0.0007504554 -0.00055965263 -0.00056658493
0.0012732702 7.315308e-05 0.00043607008 -0.0001874821 -0.0005098334 -0.00065793074 0.00043607008 -0.0001874821
0.00024273395 -3.888787e-05 0.00019886522 -0.00013745841 5.9227415e-05 4.4190296e-05 0.00019886522 -0.00013745841
0.00016022594 -5.291103e-05 -0.0003777187 -7.6100885e-05 0.00014579765 3.5861052e-05 -0.0003777187 -7.6100885e-05
0.00018034595 -4.683611e-05 6.785174e-05 7.728788e-05 0.00020054834 1.4492727e-05 6.785174e-05 7.728788e-05
-0.00021113154 -0.0001053107 -0.0004678791 -0.0002988488 0.0003837352 8.184864e-05 -0.0004678791 -0.0002988488
-0.00016949882 -0.00010107601 0.0007672976 0.00022853064 0.0003763265 0.00011443351 0.0007672976 0.00022853064
-0.0001190609 -6.150643e-05 0.00015920684 0.0003020899 0.00043848448 0.000111332505 0.00015920684 0.0003020899
0.001382036 -1.961788e-06 -0.0054001757 0.00022095401 0.0014236637 -0.00045826315 -0.0054001757 0.00022095401
0.0022625437 7.5424825e-05 0.0057121646 0.00034404488 0.001841968 -0.0005628452 0.0057121646 0.00034404488
