A2C/saved_models/agent1_best_a2c.pth (torch, 883412 bytes, 24 tensors)

0.weight f4 [256, 24]
000000 b7 64 c3 bd 13 6d e0 bd a7 34 11 be c7 ec 63 3d
       -0.09540694 -0.10958304 -0.14180242 0.05564573
000010 60 e4 1e 3e d1 4a 70 bd ff 5d f2 3c 12 4e 29 be
       0.15516806 -0.0586651 0.029585836 -0.16533688
000020 67 94 15 be cd 60 c9 3d 71 64 a9 3d 4c 9b 1a be
       -0.14607392 0.098329164 0.08271111 -0.15098304
000030 4a 70 37 3e 2a 65 a2 3b e9 ee a5 bd c3 ac 1e bd
       0.17913929 0.0049559074 -0.08102209 -0.038738977
000040 0f fb 95 3d 56 db 15 3e 8f e8 18 be 15 d7 38 be
       0.07323276 0.14634451 -0.14932464 -0.18050797
000050 1c d8 ca bd 02 db 00 be ab b3 e1 bd 11 49 0e 3e
       -0.09904501 -0.12583545 -0.11020597 0.1389506
000060 fb bb 23 be 32 2c 42 be 51 90 56 3d b8 ef 53 3d
       -0.15989678 -0.18962172 0.052383725 0.051742285
000070 6c 4b 23 3e f4 52 4d be 9e 90 e0 bc 8b 24 e2 bd
       0.1594674 -0.20051175 -0.027412709 -0.11042126
000080 40 b7 d7 bb 68 54 0f 3e 8a 74 22 3e c1 1b be 3c
       -0.0065831244 0.13997042 0.15864769 0.023206593
000090 f2 44 cc bd e6 9d 1d 3e 3c a0 0b 3e 3e 16 f5 bc
       -0.09974088 0.15392265 0.13635343 -0.029917832
0000a0 d1 27 c1 3c d7 fb 10 3e a9 e5 89 bd 31 9d ab 3c
       0.023578556 0.1415857 -0.06733257 0.020948978
0000b0 58 ad 17 3b ad fb ca 3c 03 24 27 3e 89 fb 3f 3d
       0.0023144092 0.024778211 0.16322331 0.046870742
0000c0 45 04 6a bd da b2 cb 3d 18 1c 6f bd f9 e0 26 be
       -0.057132978 0.099462226 -0.0583764 -0.16296758
0000d0 9c ff 19 bd 62 62 21 3e 52 aa 10 3d 5f b0 41 bd
       -0.037597284 0.15760186 0.03531868 -0.04728734
0000e0 c5 c0 ca bd 38 73 fb bd 94 d3 64 3d a1 a4 df 3d
       -0.09900049 -0.122778356 0.05586584 0.10920072
0000f0 c1 da 79 bd a0 f2 47 3c 90 9c ff 3d 61 15 9f 3d
       -0.060999636 0.012203842 0.12481034 0.077677496
000100 5a b1 09 3e fe 0f 5d bd 53 28 29 be 88 cf 13 bc
       0.1344656 -0.05397033 -0.16519289 -0.009021647
000110 ca 43 c9 3d 60 f0 0f 3e e6 26 8a bd f6 40 a2 3d
       0.09827383 0.1405654 -0.067457005 0.079225466
000120 b4 21 b5 3d 35 3d d6 bd cb 4a 5d bc f5 d7 03 3e
       0.08844319 -0.10460893 -0.013506602 0.1287535
000130 da 08 30 bd 16 9d 21 be 09 33 0f 3e 2d a4 31 3d
       -0.04297719 -0.1578258 0.13984312 0.04336946
000140 66 ce 3a be dd 9c 6b bd fc e4 1b 3e f9 38 44 3e
       -0.18242797 -0.057522643 0.1522407 0.19162358
000150 b5 db 1e 3e 13 3f 0e be d9 f7 9e bd c4 57 3b 3d
       0.15513499 -0.13891248 -0.07762117 0.045737997
000160 7d 96 bd 3d 97 91 fc 3c 95 7a 3c bd bd 7a 1d bd
       0.09257219 0.030831141 -0.04601534 -0.03844713
000170 f5 7d dc 3d 72 48 a8 bd df 44 54 bb fa 02 d4 bc
       0.10766212 -0.08216943 -0.0032389683 -0.025880326
000180 1f 2c 84 3d e4 7f 1c be 65 e9 e9 bd 4d 34 d8 bd
       0.06453728 -0.15283161 -0.114214696 -0.105568506
000190 f1 fc e7 bc 68 49 de 3d 60 10 3b be ff 69 18 3e
       -0.028318854 0.10853845 -0.18267965 0.14884184
0001a0 6d 49 bd 3d d7 78 1d be 31 5c bf 3c 45 70 d9 3d
       0.092425205 -0.15378128 0.02335939 0.10617117
0001b0 08 cd 99 bd da ce 63 bc a9 d3 f1 bd 09 de 5b 3d
       -0.0750981 -0.013904298 -0.11807949 0.053678546
0001c0 fc 51 20 bd 96 d5 2f 3e de 95 de bd c2 79 fb 3b
       -0.039140686 0.1717132 -0.10868429 0.007674427
0001d0 3f d9 61 be 91 b3 f9 3d bd 74 a4 bc 35 b7 bb bd
       -0.22055529 0.12192453 -0.020075196 -0.09165803
0001e0 9c 6a 39 3e 05 2d 45 be 0b d3 b8 bd fd 3a b7 3d
       0.18107074 -0.19255455 -0.09024628 0.08946798
0001f0 f2 02 f1 3d ad f7 43 be 9b 44 e7 bd 64 c1 3f 3e
       0.1176814 -0.1913745 -0.11292382 0.18726116
000200 5d 43 41 be 61 54 4d bd f6 3a 2c 3e e4 ec 24 be
       -0.18873353 -0.050129298 0.16819367 -0.16105992
000210 83 eb 24 bc b3 3b 08 be eb 0c 9c bd 23 83 01 3e
       -0.010065916 -0.13304023 -0.076196514 0.12647681
000220 c4 5a a6 bd 82 b0 f2 bd 7d f3 c1 bd 66 72 b0 bd
       -0.08122781 -0.118500724 -0.0947027 -0.0861557
000230 54 ab 15 3e a4 ca 03 3e 04 40 81 3d 3e 41 e7 3d
       0.14616138 0.1287027 0.06311038 0.11291741
000240 50 3e 11 3e c7 55 0a 3e 92 01 2f 3e 5b 66 da 3d
       0.14183927 0.13509284 0.17090443 0.10664054
000250 8b 37 2f 3e 71 f7 3e 3d 9b af 31 be 89 23 da bd
       0.17111032 0.046622697 -0.17352144 -0.10651309
000260 13 68 22 3e 1c 90 2f 3e da 47 0d 3d 49 a1 35 bd
       0.15860014 0.17144817 0.03449235 -0.044343267
000270 c4 55 61 3e 4b 96 81 bd 7b a0 bc bc bd fe 9b 3c
       0.22005373 -0.06327494 -0.023025742 0.019042367
000280 fd 98 55 be 12 46 5b be 32 5c 7a 3d b3 02 13 3e
       -0.20859142 -0.21413448 0.06112308 0.14356498
000290 59 73 9a bd c2 b1 4c 3e 23 34 1f bd 5b 5a 75 bc
       -0.07541532 0.19989684 -0.03886808 -0.014975156
0002a0 e6 5b 33 3e b2 fa aa 3d 7b da 21 be 58 95 0e 3e
       0.17515525 0.083485976 -0.15806 0.13924158
0002b0 d4 a6 8f bc 7c 6a 23 3e 22 5a 46 3e 08 a9 ee bd
       -0.017535605 0.1595859 0.1937032 -0.11653334
0002c0 be 6f 3c 3e 0f 96 43 be 96 2d 21 bd a2 9d a2 bd
       0.18402001 -0.19100212 -0.039350115 -0.07940222
0002d0 0a fa ef bd 19 b0 af bd ec c2 80 bd 26 86 88 3d
       -0.11717613 -0.0857851 -0.062871784 0.06666212
0002e0 f5 2a 1d be d0 a6 1e 3e 2e 74 f6 bd ce 5c 9f 3a
       -0.15348418 0.15493321 -0.12033878 0.0012158395
0002f0 79 96 5b 3e 86 5b c5 3d 1e 1a 0a 3e ee 7f 9c bd
       0.2144412 0.09636597 0.13486525 -0.07641588
000300 13 5c e0 3d e3 3d af 3d 46 35 0f be b9 e7 5f bd
       0.10955062 0.08556726 -0.13985166 -0.054664347
000310 f6 35 f9 3d a5 c7 94 3d f3 66 f0 3d 64 3b b4 bc
       0.12168495 0.07264642 0.11738386 -0.022000976
000320 08 bd 87 3b cd 9a 3b 3c 9a c9 02 3e 20 4d ff bd
       0.0041424073 0.011450482 0.12772217 -0.12465882
000330 5a df c7 bd 34 23 16 3e e0 14 fb bd 70 96 c3 3c
       -0.09759398 0.14661866 -0.12259841 0.023875445
000340 b0 dd 3a be cb 8b e9 3d 1d 55 35 be a6 0e f9 3c
       -0.1824863 0.114036165 -0.1770825 0.030402493
000350 03 d0 e1 3d e8 da 1e 3e ba e5 1d be 62 3f c7 bd
       0.11026003 0.15513194 -0.15419665 -0.09728886
000360 3d 34 31 3e 2a aa bc bd f8 90 04 be c3 a2 d0 bd
       0.17305084 -0.09212144 -0.12945926 -0.10187294
000370 4d fb cd bc 95 76 14 3d e5 95 ad bd ec 8e 9e bd
       -0.025144244 0.0362459 -0.08475856 -0.07742104
000380 c8 b7 03 be b9 b6 04 be 84 e2 ae 3d bc 70 32 3e
       -0.12863076 -0.12960328 0.08539298 0.17425817
000390 9c 97 30 be 0c 23 4c 3e f8 4d 8a 3b 62 89 27 bc
       -0.17245334 0.19935244 0.0042207204 -0.010225626
0003a0 e9 11 a7 3d 4e 07 cf bd 45 52 72 3d db d1 10 3e
       0.08157713 -0.10108815 0.05916049 0.14142554
0003b0 2c fb 62 bd 0f 43 55 3e 45 e9 9e bc fc 50 9e bd
       -0.055415317 0.20826362 -0.019398341 -0.0773029
0003c0 5e 22 8e 3d a4 91 4f 3e 95 ad cb bd 47 82 16 be
       0.06940149 0.20270401 -0.099452175 -0.14698134
0003d0 5a 63 fb bd 3e f6 0a 3d 38 eb 09 3e c6 25 d7 3d
       -0.12274809 0.03392624 0.13468635 0.105052516
0003e0 46 80 aa bd 1d f4 1d be e5 9b 43 be 08 7a 1a be
       -0.083252475 -0.15425153 -0.19102438 -0.15085614
0003f0 ad 88 49 3d 4c 58 57 3c ab 4c 9e bd 87 45 49 3e
       0.04920261 0.01314361 -0.07729467 0.19655429

0.bias f4 [256]
000000 aa 8d cf bc 73 87 d5 3d df a4 f5 3c 5f ed 18 be
       -0.025336105 0.104262255 0.029985843 -0.149343
000010 78 11 ce bd fd 50 d2 bc 9d ac ec bd c6 72 06 3d
       -0.10061926 -0.025673384 -0.11556361 0.0328243
000020 23 3d 73 bc 66 c2 3c bd bb 3c 99 3d 69 f3 e7 3d
       -0.014846119 -0.04608383 0.074822865 0.11325724
000030 d1 1a e0 ba 5e 01 b5 bc 27 9b ab bd f8 7d 3e 3e
       -0.0017097836 -0.022095378 -0.08379202 0.18602741
000040 9d 41 2b 3e d2 ce 4d be a3 1e d9 bd 1c 70 12 be
       0.16724248 -0.20098427 -0.106015466 -0.14300579
000050 11 d8 23 be e2 ee 28 3d d1 b9 ae bc ed ac 1d bc
       -0.16000392 0.04124344 -0.021328839 -0.009623748
000060 f2 c4 73 bd dc b8 c4 3b ac 98 ec 3c 44 11 d6 3d
       -0.059513994 0.0060034823 0.028881393 0.10452512
000070 cb 13 11 be 89 d5 5e be 98 77 02 be e1 39 02 3e
       -0.14167707 -0.21761145 -0.12740934 0.12717392
000080 1b 22 1a be 55 78 32 3e 5f c7 03 3e b0 6e ba bc
       -0.15052073 0.17428716 0.12869023 -0.022757858
000090 68 bf e1 bd 6e 6f 28 3e ea 84 94 3d 46 5a 34 3e
       -0.11022836 0.16448757 0.07251914 0.17612562
0000a0 3c 23 33 be 6e 1b 43 3e b6 eb 38 3c 3b c5 4b 3e
       -0.1749391 0.19053432 0.011286667 0.19899456
0000b0 a2 f6 10 3e 0d 81 61 3d dc c8 29 3e c0 e5 c9 3d
       0.14156583 0.055054713 0.16580528 0.098582745
0000c0 e5 7c a3 3d 2f 23 d0 3d dd 89 13 be 49 5d a0 bd
       0.07982806 0.10162961 -0.1440806 -0.07830293
0000d0 c4 62 f4 3d a8 77 2a be a1 21 83 bd 58 0f 48 bd
       0.119329005 -0.16647208 -0.064028986 -0.048842758
0000e0 26 ba 07 be 0d 54 1c 3e ad af 36 be f9 ec a5 3d
       -0.13254604 0.15266438 -0.17840452 0.081018396
0000f0 37 e0 7e bd d4 ae 63 be a4 cb d9 bd a9 db 18 3d
       -0.062225547 -0.2223466 -0.106345445 0.03731886
000100 95 1d 42 be b7 df 4e be ec 18 82 bd f2 37 bc bd
       -0.18956597 -0.20202528 -0.0635241 -0.09190358
000110 77 40 45 3e c5 e2 de bd 2a bf 99 3d 26 c3 3e be
       0.19262873 -0.108830966 0.07507165 -0.1862913
000120 8a 57 73 bd 76 34 2c bd 76 cf 99 3d 2b 32 ee 3d
       -0.059409656 -0.04204222 0.07510273 0.116306625
000130 8d 31 22 3e 20 a4 42 3d 55 d6 a1 bb d5 e5 0e 3e
       0.15839215 0.047519803 -0.0049388804 0.13954861
000140 e0 32 fb 3a 46 7b dd bc e5 bc 16 be 63 a2 47 3d
       0.0019164942 -0.02703632 -0.14720495 0.04873885
000150 7e b2 d3 ba ae 30 29 3e 7d a7 ec bd ae ae 23 be
       -0.0016151217 0.16522476 -0.11555383 -0.15984604
000160 d3 1b 47 3c 2b 3f b8 3a f4 ca b7 bd 0f 45 47 3d
       0.01215263 0.0014056911 -0.08974257 0.048649844
000170 75 06 ef 3d 82 52 0d b9 e7 4e f8 bd 61 37 41 3e
       0.116711535 -0.00013477544 -0.121244244 0.18868782
000180 1e 19 1a 3e 4d 15 52 be 65 86 1d 3c 64 a5 e3 3c
       0.15048644 -0.20515938 0.009614562 0.027788825
000190 2f 87 c9 3d 85 0e 2c be 26 ad 07 3e da 18 30 be
       0.09840237 -0.16802414 0.13249645 -0.1719698
0001a0 03 ab cf 3c 27 e0 57 bd 85 36 74 3d a8 26 19 bd
       0.0253501 -0.052704003 0.059622306 -0.03739038
0001b0 3a 19 33 be c9 b4 98 3d 2a c6 8b 3d 55 89 55 3b
       -0.17490092 0.07456357 0.06824906 0.0032583077
0001c0 9d c2 19 3e 75 66 87 bd 5f 91 b1 bc d6 7a ff 3d
       0.15015645 -0.06611339 -0.021675764 0.12474601
0001d0 f6 d5 2d 3e cd 32 a3 3d 51 ac e3 3d d9 85 57 be
       0.16976151 0.07968674 0.11116851 -0.21047153
0001e0 59 0c 5d bd f3 7e b1 bd ad 4e 11 3e 59 89 57 3e
       -0.053966854 -0.08666792 0.14190169 0.21048488
0001f0 1f 85 16 be cd 1b 0d be 05 0c 82 bd a4 14 12 be
       -0.14699219 -0.13780136 -0.06349949 -0.14265686
000200 6a 03 15 3d 84 e6 03 be ad 82 87 3d 8d 26 27 3c
       0.03638021 -0.12880903 0.06616721 0.010202062
000210 51 b9 fb bc bb 28 2e be 68 5e 48 3d e6 76 b4 bc
       -0.030728014 -0.17007725 0.048918158 -0.022029351
000220 9b db 2b 3d 62 c7 ee bc 9d 51 19 bd 1a 63 ee bd
       0.04195748 -0.029147808 -0.037431348 -0.11639996
000230 23 53 d2 3d 34 2c f6 bd 5f ed 02 be 2d 3e 2b be
       0.10269763 -0.1202015 -0.12785862 -0.16722937
000240 6c cb 2d be 1d 88 21 3e 12 ae b1 bd 4e 1f 40 3e
       -0.1697213 0.1577458 -0.086757794 0.18761942
000250 73 af 4d 3b 71 d3 db bd 9e ac 0a bd c9 91 1e be
       0.0031385093 -0.107336886 -0.033856027 -0.154853
000260 bd 63 fe 3d 74 99 b6 bd 06 08 84 3d 8f a5 9a bd
       0.12421367 -0.089159876 0.06446843 -0.07551109
000270 76 f6 0e 3e d4 7a c3 3d 14 cd 31 be f6 3a 0e 3e
       0.13961205 0.09544912 -0.17363387 0.1388968
000280 b3 23 97 3d ed 49 2e 3e c0 7f ba bd e6 13 69 3e
       0.07379856 0.17020388 -0.09106398 0.22761497
000290 4a 24 34 bc 18 64 4d be 8e c6 1f be ba a1 57 3e
       -0.01099498 -0.20057714 -0.15603086 0.21057788
0002a0 4e 36 df 3d 53 b0 07 3e 96 48 0f 3e 2e fd 47 3e
       0.1089903 0.13250856 0.13992533 0.19530174
0002b0 d7 cb 28 be 82 9c fb 3d 42 3b a6 bd fb 28 e2 3c
       -0.16484009 0.12285711 -0.08116771 0.027607432
0002c0 85 3f 06 bd 4b 94 97 bc 2f 37 1f be b0 14 e8 3b
       -0.03277542 -0.018503329 -0.15548395 0.0070825443
0002d0 42 58 f2 3d 4d 9c 13 3e d7 5e 0f 3e 2f 5c 40 3e
       0.1183324 0.14415093 0.14001022 0.18785165
0002e0 9f f9 3b 3e ab a8 0a be 3e 83 9f 3d 4c 9e f2 bd
       0.18356942 -0.13540904 0.07788704 -0.11846599
0002f0 92 c3 92 3d 74 0c c4 3d d8 20 fb bd 95 d7 cc bd
       0.07166208 0.09572688 -0.12262124 -0.100020565
000300 3b c5 22 3e e6 18 25 be 33 0c 51 3c ff 3c 04 3e
       0.1589555 -0.16122779 0.012759256 0.12913893
000310 12 cf 31 bd e7 c8 7e bc 09 07 aa bc f0 93 e5 3d
       -0.04341037 -0.015550829 -0.020755308 0.112098575
000320 7d 9b d4 bd 6f 60 92 bc 4b 38 ce bd 74 05 2a be
       -0.103812195 -0.017868249 -0.10069331 -0.16603643
000330 3c 22 17 3e f8 d2 0c be 76 aa 49 be 52 eb d4 bc
       0.14759153 -0.13752353 -0.19693932 -0.025991116
000340 94 28 d1 bd 1d 14 9f 3d cf c0 33 be 3e 08 ca bd
       -0.10212818 0.07767508 -0.1755402 -0.09864853
000350 72 b9 27 be 22 87 33 be a1 c4 4a 3e e8 de 06 3e
       -0.16379336 -0.17532018 0.1980157 0.1317097
000360 f4 0d d0 3b e4 40 23 3e bd d7 ee 3d fc 9a 38 3b
       0.0063493196 0.15942723 0.116622426 0.002816855
000370 32 21 52 3e d5 c3 1e be 53 6d 18 be 02 87 b8 3d
       0.20520476 -0.15504391 -0.14885454 0.09010126
000380 e7 ce 26 3e 53 0a 10 be 9d 67 4a 3e 43 c6 c9 bc
       0.16289864 -0.14066438 0.19766088 -0.024630671
000390 78 dc f2 bc 96 ec d4 bd 84 88 59 3d 42 e9 72 bd
       -0.029646143 -0.10396688 0.053108707 -0.059304483
0003a0 76 29 ed bd 0d 9f 76 bd 89 bd b0 bd 22 76 4a be
       -0.11580174 -0.060210276 -0.08629901 -0.19771627
0003b0 21 85 f9 bd f3 49 3d 3e a4 43 3e 3d f1 ce 8f bb
       -0.121835954 0.1848524 0.046451226 -0.004388683
0003c0 ca 33 3a be 75 d4 53 bd 80 df cf bd ac b2 10 3e
       -0.18183818 -0.051716287 -0.10150051 0.14130658
0003d0 c3 9b 58 bd be ca b7 3c 72 11 ef 3d 0f 84 45 be
       -0.05288292 0.022435542 0.11673249 -0.19288658
0003e0 6e 07 09 be a1 93 94 bd 90 4a 94 3d c1 7f dd bc
       -0.1338174 -0.072547205 0.07240784 -0.027038457
0003f0 41 51 81 3d e8 ae ea 3d 9d ef 0d 3d 71 d1 5d bd
       0.06314326 0.11459142 0.03465234 -0.054154817

2.weight f4 [256, 256]
000000 ab 9f a6 bb 51 88 30 bd d3 4a 86 3c 40 92 7c bc
       -0.005084952 -0.04309875 0.0163931 -0.015415728
000010 03 a1 a1 bd da 00 c4 bc 45 af 41 3c a7 6a c7 3d
       -0.07892039 -0.023926187 0.011821573 0.09737139
000020 da 01 c9 3a b1 37 03 3d 48 44 e5 bc fb b9 91 bd
       0.0015335635 0.032035533 -0.02798666 -0.07115551
000030 dc 0d 16 bd f2 a3 77 3c 53 26 85 bc 02 04 71 bd
       -0.03663431 0.015114771 -0.016253626 -0.058841713
000040 35 f8 41 3d 3f 0f 3f 3c d9 7c 26 3d 2e 84 a2 3d
       0.04735585 0.01166135 0.040646408 0.079353675
000050 dc 03 96 3c bc 2a 43 bd df 9e 90 bd 45 d6 55 3d
       0.018312387 -0.047648177 -0.07061552 0.052206296
000060 c7 6a 4c 3d b1 5a ba 3a 39 46 c3 bc 74 31 32 bd
       0.04990652 0.0014217702 -0.023837196 -0.043504193
000070 76 0e 2e 3d 77 c0 85 3d ff 6f 3c bd a5 4c aa bb
       0.04249426 0.065308504 -0.046005245 -0.005197125
000080 62 a3 03 3c ee 55 21 bd ab a5 06 3d 0b ae 82 bb
       0.008034559 -0.03938859 0.032872837 -0.0039880327
000090 6e 27 3a 3c 1e fc dc 3c 16 11 53 3c 28 62 55 bc
       0.01136194 0.026975688 0.012882492 -0.013023891
0000a0 ad 92 90 3d c8 08 96 bb 2e ce 04 bc 4e 13 3f bd
       0.07059226 -0.0045786835 -0.008105798 -0.04664927
0000b0 1f e5 91 bc 44 3a 75 bc 84 54 46 3d 9e a2 cd 3c
       -0.017809449 -0.014967505 0.048420444 0.025101956
0000c0 9c e8 1a bb 19 75 05 3d cf 81 a9 bd 78 67 4a bd
       -0.002363718 0.032582376 -0.08276712 -0.04941508
0000d0 cd 53 87 bd a1 26 fe 3b 0b 23 7f 3d 7f bd 93 bd
       -0.066077806 0.00775607 0.06228928 -0.07213878
0000e0 14 af 27 bc 5c fc b6 3d 42 6d 9d 3c e0 34 3b bb
       -0.010234613 0.089348525 0.019217137 -0.0028565452
0000f0 d1 81 48 bd 99 1d 92 bc a8 04 a9 3d fc f8 75 3d
       -0.048951928 -0.017836379 0.08252841 0.060051903
000100 60 ae 9b bc 74 a6 33 bd d3 fa 95 bc 63 3b 83 3a
       -0.019004047 -0.043859914 -0.018308079 0.0010012205
000110 90 35 5c bd 06 bf 7b 3b ad ee 70 3c 5f 64 63 3d
       -0.05376202 0.003841342 0.014705342 0.055515643
000120 e4 62 cb 3a 63 1e 0e 3d e8 3e 1b bd 7a f7 b7 bb
       0.0015517143 0.034696948 -0.03790179 -0.0056142183
000130 da e9 36 3d 45 a1 74 3d f6 99 c8 bd 96 9b 72 3d
       0.044656612 0.05972411 -0.09794991 0.05923041
000140 97 53 99 bd c3 f9 45 bd 6c b5 89 3c 9d c2 ec 3c
       -0.074866466 -0.048333894 0.016810142 0.028901393
000150 b4 47 18 3d ca 88 b5 3c 3d 58 e2 bc 9d c9 56 3d
       0.037177756 0.022159953 -0.027629966 0.052438367
000160 f7 89 af bc 5b dd 68 bc 93 5c 21 bd e4 a0 7b 3d
       -0.021428091 -0.0142129315 -0.039394926 0.061432734
000170 9d 8b 0a 3c e4 cc 24 bd 14 0b 6b bd 7d 5f 4e 3d
       0.008456138 -0.04023446 -0.05738361 0.050384033
000180 a6 64 7d bd 14 48 16 bd a5 0d ef bc b0 6b 04 3d
       -0.061863564 -0.036689833 -0.02918131 0.03232926
000190 da 1e fd 3c fa cf 2c bd c3 bd 12 bd ad 08 96 bd
       0.0308985 -0.04219053 -0.035825502 -0.073258735
0001a0 f0 58 35 bd 12 eb b3 bb 4d cd 1a 3d 77 d6 31 bd
       -0.04427427 -0.005490669 0.037793446 -0.04341742
0001b0 1e d1 62 3d d1 b8 5e bd fc 9d fb bc a4 40 91 bb
       0.05537521 -0.054375473 -0.030714981 -0.0044327546
0001c0 67 af 0f bd c2 52 ce 3c b4 e9 e5 bc 97 f9 fd 3c
       -0.035079386 0.025185946 -0.02806554 0.031002803
0001d0 f0 09 d1 bd 2f 56 53 3d 7d 93 77 bc b3 98 1a bd
       -0.102069736 0.051595863 -0.015110848 -0.03774328
0001e0 d5 4e 7f bd f2 34 86 bb e4 8b 3f bd 10 e2 3a bd
       -0.06233104 -0.004095667 -0.04676427 -0.045625746
0001f0 15 9e 1a be cb b7 30 3c c1 2b 79 bc fa 2f 36 3d
       -0.15099366 0.010786007 -0.015208186 0.044479348
000200 35 f1 4b bc f8 d3 13 3d 8b 36 4f 3d e5 0b 17 3d
       -0.012447645 0.03609082 0.050589126 0.036876578
000210 08 c0 bd 3c 7b 42 5e 3d 86 36 57 bd ee cb 19 bd
       0.023162857 0.05426262 -0.052542232 -0.037547998
000220 5c 96 84 3d ef ac 1b bc 3e 95 83 3d fc 84 8c bc
       0.06473991 -0.00950168 0.0642495 -0.017153256
000230 48 44 31 3d 39 96 e9 3b 32 02 9e 3c 9d c5 8b bd
       0.04327801 0.0071285036 0.019288156 -0.06824801
000240 d2 24 67 bd 87 5a 4b 3d 2e 3b ec bc 31 ce 9e 3d
       -0.0564316 0.04964688 -0.028836813 0.07754172
000250 60 2d 12 3d f0 45 4f 3c 34 d1 41 bc 7e 41 c3 3b
       0.035687804 0.012650952 -0.011829663 0.005958735
000260 92 ea 17 be 21 73 52 b8 00 22 59 bd 8a 29 e9 3c
       -0.14835575 -5.0175124e-05 -0.05301094 0.02846219
000270 79 b4 15 3c a1 a5 40 3d cf 57 84 3d f8 f3 a3 bc
       0.009137266 0.047032956 0.06462061 -0.020013794
000280 ba 2f 1f 3d 0c 5b fa bc d2 c7 67 bc 2d c2 34 3c
       0.038863875 -0.030560993 -0.014146762 0.011032623
000290 aa 1d 55 3d 0c 97 1b bd 40 ea f9 bc 6a be 55 bd
       0.052030243 -0.037985846 -0.030507207 -0.052183546
0002a0 9b fa 34 3c ed 34 ae 3c a1 e8 7d 3d 30 5a 1c bd
       0.011046077 0.021265471 0.06198943 -0.038171947
0002b0 8a 46 ee 3c e1 3c 92 3d 25 92 1e 3d 07 fc 9e bb
       0.02908637 0.07140518 0.038713593 -0.0048518213
0002c0 7d d2 85 3d 32 08 a4 3c 04 17 c8 bb 76 de 23 3d
       0.06534288 0.02002344 -0.0061062593 0.040007077
0002d0 a0 c0 25 ba 3d 86 81 3d 31 02 5b bd 44 33 b4 3c
       -0.0006322954 0.06324432 -0.053468887 0.021997102
0002e0 3e e0 8a bc 12 19 09 3d 90 68 47 bd c5 25 c3 3d
       -0.01695263 0.033471175 -0.048683703 0.09528688
0002f0 70 3e 18 bd c1 ab e4 ba 43 e5 2d 3d b9 f3 9b bc
       -0.03716892 -0.0017446206 0.04245497 -0.019037114
000300 00 7d 9f bd f6 e1 28 bc 18 15 7e bc 23 5f 2d 3d
       -0.07787514 -0.01030778 -0.015507959 0.042327058
000310 1a ca a5 bb 63 2f da bc 1c aa 26 bd 1a 08 9b bd
       -0.005059493 -0.026633924 -0.040689573 -0.075699046
000320 75 03 d0 3d d4 33 4e 3d 87 24 53 3d d9 38 24 bc
       0.101569094 0.050342396 0.051548507 -0.010023319
000330 af 1a 89 bc de 4c 15 3a 27 cf 78 3c 4b 21 0e 3d
       -0.016736357 0.0005695353 0.015186108 0.03469972
000340 44 2a 1f 3d d8 d8 88 3d e0 fb 86 3c a6 4f 20 bd
       0.038858667 0.06681985 0.016477525 -0.03913846
000350 f9 a8 8f bd ae 19 34 3d 9c 48 12 3d 61 1a e3 bb
       -0.07014651 0.043969803 0.035713777 -0.006930635
000360 0f 6d 45 bd bd b5 7d 3d ef fe 74 bd 86 11 18 bd
       -0.04819971 0.061940897 -0.059813436 -0.037126087
000370 cc 11 08 3d 2e 2f e5 3b 5e 03 e7 3d 10 61 61 bd
       0.033220097 0.0069941496 0.11279939 -0.055024207
000380 85 ab ab 3d 47 73 86 bd e0 35 6a 3c 03 1e ac bc
       0.08382324 -0.06564956 0.014295071 -0.021010404
000390 9f 83 6c 3d 56 fe 43 3b 12 49 da 3c 34 5b 59 3d
       0.05774271 0.0029906235 0.02664617 0.053065494
0003a0 9d 3c cc 3c 26 20 0f bd 70 17 23 3d 3d 4c c2 3d
       0.024931246 -0.03494277 0.039817274 0.094871975
0003b0 cf 59 25 bd 29 14 b7 bd 7f ec 60 bd 21 0b 33 3d
       -0.04036885 -0.08939392 -0.05491304 0.043711785
0003c0 c9 8e 7b bd 6a a2 23 3d 41 ab 5f bd 1a 7e 1e 3d
       -0.061415467 0.039949812 -0.05460668 0.03869448
0003d0 bc 6a 85 bd 67 4e 38 bc 26 f3 10 3d 8b 31 8d 3c
       -0.065144986 -0.011249161 0.035388134 0.017235538
0003e0 d9 ab ee 3b d2 1c 3c 3d b6 82 4f bd 08 6f 22 3d
       0.0072836694 0.045925923 -0.050661765 0.03965667
0003f0 71 6f fd 3c 54 90 98 3d 0c 1f 83 3b 9d 62 16 bb
       0.030936928 0.074494034 0.004001504 -0.0022946962

2.bias f4 [256]
000000 40 24 7a 3d 13 76 0b bd a0 a8 a9 bc 83 e3 91 bc
       0.061069727 -0.03404815 -0.02071029 -0.017808681
000010 86 be 68 3d 54 b6 7d bc 5e c5 28 3d cd 58 fd 3c
       0.056822322 -0.015485365 0.04120385 0.030926133
000020 1e 51 f9 bc 6d 7b 1c bc 4c 22 1f bd f9 bc f6 3c
       -0.030434188 -0.009550911 -0.038851067 0.030119406
000030 6e 87 fd 3c 2b ef 6d 3d 65 ce ed bc 96 f3 ea bc
       0.030948367 0.058089416 -0.02902908 -0.028680604
000040 bf 41 72 3d aa cb e1 bc 4b fb 3c bd c2 92 62 bd
       0.05914473 -0.027562935 -0.04613809 -0.05531574
000050 b5 da 82 bd 3f 52 4c bd 0d 4b 27 bd 46 f3 ac 3c
       -0.06389371 -0.049883123 -0.04084306 0.021112096
000060 e4 71 3b bd bd e2 18 bd e1 a6 5b bd 96 38 67 bd
       -0.04576291 -0.03732561 -0.053625945 -0.05645045
000070 95 a7 72 bd 9c f5 98 bc ef 11 78 3d a0 39 4b ba
       -0.05924185 -0.018671803 0.060563978 -0.0007752422
000080 d1 78 a6 b9 f6 05 14 bd b8 9f 5f bd 14 b6 a1 bc
       -0.00031752003 -0.036138497 -0.05459568 -0.019740142
000090 b3 ce 58 3d 80 09 46 bc 2e f9 65 3b ca cf 84 3c
       0.0529315 -0.012087226 0.003509115 0.016212363
0000a0 37 c4 8b bd 73 08 cd 3c 32 1e 05 bd ce 38 d0 bc
       -0.068245344 0.025028443 -0.0324995 -0.025417712
0000b0 97 5f 13 3c 12 82 63 3d 9c f1 66 bd fb 4a 4f 3d
       0.008994958 0.055543967 -0.05638276 0.050608616
0000c0 d9 f0 33 3d 2d 29 80 3c ec 27 01 3c 1a 41 4b bc
       0.043930862 0.015644634 0.007883053 -0.012405658
0000d0 9f 42 9b bc 74 f7 5e 3c aa 79 49 bd 68 2b 16 3d
       -0.018952666 0.013608802 -0.049188294 0.03666249
0000e0 b8 83 60 bb e0 94 61 bd 51 75 ae bb 88 52 70 3d
       -0.0034258198 -0.05507362 -0.005324044 0.058672458
0000f0 c2 08 37 bd f8 48 aa 3d 6b b4 e5 3c f8 7c 38 bd
       -0.044686086 0.08314699 0.028040132 -0.045041054
000100 a4 ed 1d 3d 03 ab 20 bd 1b a8 83 bc 4b fa d6 bb
       0.03855671 -0.03922559 -0.01607137 -0.006560599
000110 7d 0b 66 bb d8 ae 0d bc e0 24 90 bc 8f d9 67 bd
       -0.0035102062 -0.008647643 -0.017595708 -0.056603964
000120 03 2e 69 bd 22 83 a2 3c 79 2f 5b 3c 63 95 09 bc
       -0.056928646 0.01983792 0.013378018 -0.008397433
000130 53 75 12 bd 82 fb 82 3c 66 f6 ab bc a2 c5 71 3a
       -0.03575642 0.015989069 -0.020991515 0.000922287
000140 bc f5 7c bb 9b c3 b1 3c 12 3e 98 bc 24 38 40 bc
       -0.0038598618 0.021699717 -0.018584285 -0.011732135
000150 8a be 25 3d 33 15 fc bb 0d c9 50 3c 74 14 fa bc
       0.040464915 -0.007692957 0.012743247 -0.030527331
000160 87 e0 2f 3c 66 c5 4e bd a3 56 19 bc 8f c8 0f bb
       0.010734684 -0.050481223 -0.009359035 -0.002193961
000170 46 cf 97 bd cb 05 f4 bc a3 32 2d 3d b3 f5 77 3d
       -0.07412581 -0.029787919 0.04228462 0.06053705
000180 cf da f3 3c a3 e6 a4 3c df ad 1f 3c ec 25 62 bd
       0.029767422 0.020129507 0.009746044 -0.055211946
000190 27 c2 8f bc 22 3d 33 3d e5 b9 2a 3d ee 3b 6e 3d
       -0.017548634 0.043759473 0.04168119 0.058162622
0001a0 3a bc 64 bd b1 2c 83 3d dd 06 89 3d f1 02 0c bd
       -0.05584357 0.064050086 0.06690762 -0.034182493
0001b0 40 ef 30 3b fe 7a f5 bc 7a 08 0c 3d 14 c6 51 bd
       0.0026998073 -0.029965874 0.03418777 -0.051214293
0001c0 d0 c3 13 bd e7 e0 07 3c be 1a 7b 3d f9 1d 74 bd
       -0.036075413 0.008293367 0.0613048 -0.059598897
0001d0 d8 4b ad bc 75 1c 28 3d 53 5e 4f 3d f7 bb c2 3b
       -0.02115433 0.041042764 0.050627064 0.0059428173
0001e0 e0 28 09 bd 32 23 b6 bc 60 35 7f 3d de 3a b8 3b
       -0.033486247 -0.02223358 0.06230676 0.005622252
0001f0 20 68 a0 3c ec 99 45 3d 8e 59 f8 3c 35 f7 4a bd
       0.0195809 0.048242494 0.03031614 -0.04955216
000200 60 94 c9 39 f6 54 47 3d 91 fd 4e bd 70 99 59 3d
       0.00038448256 0.04866501 -0.05053479 0.053124845
000210 da 82 6a bd 59 58 11 bd a9 d3 02 bc 75 dc 96 3c
       -0.057253696 -0.035484646 -0.007985034 0.018415669
000220 26 94 76 3c ff 48 43 3d 8e 35 c0 bc e7 26 67 3d
       0.01504997 0.047677036 -0.023463037 0.056433585
000230 b8 26 53 bd 8a d7 60 bc ac 4f 1d 3d b5 d6 8d 3d
       -0.051550597 -0.0137232635 0.03840606 0.06925718
000240 08 07 28 3b f8 d0 51 bd cf ab bd bb 37 78 23 bd
       0.0025638957 -0.05122468 -0.0057883034 -0.039909568
000250 24 ad 91 3b f1 d7 96 3d 8a 04 e1 3c d4 95 83 ba
       0.004445689 0.07365406 0.027467985 -0.0010039159
000260 08 df 53 3d 86 55 7f bd 35 09 d1 bb 5d 89 f9 3c
       0.05172637 -0.06233742 -0.0063792714 0.030461008
000270 b8 cb 8c bd 41 70 c9 3b a0 7d 2e 3d 44 8c c8 bc
       -0.06874794 0.006147415 0.042600274 -0.024480946
000280 ab 88 12 bd 06 d7 7a 3d fc 39 8d bc e2 52 d9 bc
       -0.035774868 0.06124022 -0.017239563 -0.02652878
000290 65 b0 e8 3b ed b4 0e bd 08 fc b2 3c 17 02 41 3c
       0.007101106 -0.034840513 0.021848693 0.011780283
0002a0 d8 25 80 3d e7 6f 5e 3d 04 bf 93 ba 54 af 13 3c
       0.06257218 0.054305937 -0.0011272137 0.009013969
0002b0 2f 90 a3 bb fc 8b 95 bc 03 df b4 ba 47 aa 07 3d
       -0.0049915533 -0.018255226 -0.0013799373 0.033121374
0002c0 bd 98 ca bb 1c 77 8a bc f6 37 50 bd 75 95 11 3d
       -0.0061827586 -0.016902499 -0.05083462 0.035542924
0002d0 e8 b3 60 bb eb 7e 4a bd 1f 96 04 bb f0 83 d6 3c
       -0.003428692 -0.049437445 -0.002023108 0.02618596
0002e0 8c ea 2b bd 67 ef 2d 3d e9 0c ec bc a7 83 8c 3c
       -0.04197173 0.04246464 -0.02881475 0.01715262
0002f0 7c 44 2c 3d 06 cd b5 3c 34 ef 45 bd e2 63 48 3c
       0.0420575 0.02219249 -0.048323825 0.012230845
000300 96 0d 1c bd 61 3d e0 bc 8e 88 5e bc 59 da f5 3c
       -0.038098894 -0.027373018 -0.013582362 0.030011343
000310 60 b4 a2 3c 91 b6 c8 bc 0f b8 49 3d 9b 1d 6c bb
       0.0198614 -0.024501117 0.049247798 -0.0036028388
000320 c1 2f 8a bc 10 46 47 bd 22 40 87 bc 34 de a9 bc
       -0.016868474 -0.0486508 -0.016510073 -0.020735838
000330 b2 96 1b bd 08 84 73 3d 87 80 5b bd 8f 2a b8 bc
       -0.03798551 0.059452087 -0.05358937 -0.022481231
000340 be 16 e8 3c 17 43 53 3c 86 e3 7b 3d f7 b2 8b 3c
       0.028331157 0.012894413 0.06149628 0.01705311
000350 a4 97 d0 bc 5b a3 d4 3b f3 13 02 3c a4 8c fe 3c
       -0.025462933 0.0064892 0.007939327 0.031072922
000360 80 db b2 bc 29 25 87 3b 22 de 2f bd 07 d9 3d bb
       -0.021833181 0.004124303 -0.04293645 -0.002896847
000370 90 99 3e 3d b1 0c 14 bd ec 41 ac bc ec dc 84 bd
       0.046533167 -0.036144916 -0.021027528 -0.0648745
000380 d1 3b 12 3d b1 ea 10 3d f6 0e c6 3c 41 08 02 bd
       0.035701577 0.03538007 0.024177056 -0.031746153
000390 29 4f 2b 3d 97 2e 01 bd c8 d3 10 3d 1c 74 ce 3c
       0.04182354 -0.031538572 0.03535822 0.02520185
0003a0 46 87 00 bc bc 9d 5e 3d 92 c5 96 3d a5 71 c2 bb
       -0.007844752 0.054349646 0.07361902 -0.0059339576
0003b0 53 d2 7f bd 7a 36 fa bc 86 e8 41 bd 9b a9 61 bc
       -0.06245644 -0.030543555 -0.047340892 -0.013773347
0003c0 6b d5 8a 3c fb 28 55 bd 22 e7 a0 3c 45 61 7b bb
       0.016947469 -0.052041035 0.019641463 -0.0038357538
0003d0 2b bc e5 3c fa bd 83 3d c3 89 22 3d d3 a1 b1 bc
       0.028043827 0.064327195 0.03968216 -0.02168361
0003e0 7c 09 1d 3d 2f 34 5f bc 9e f5 3d bd b4 93 0b bd
       0.038339123 -0.013623281 -0.046376817 -0.034076408
0003f0 94 fc 2d bd f0 7e d6 bb 18 8b 4f bd a3 40 55 bc
       -0.042477205 -0.006545894 -0.05066976 -0.013015899

weight f4 [2, 256]
000000 33 33 17 3e 21 d2 20 bd ca 2b c9 bc bb f2 35 bd
       0.14765625 -0.039262895 -0.024557013 -0.04442094
000010 91 86 ab 3c eb a7 82 bd 54 81 e6 bc fc 24 55 bd
       0.02093819 -0.06379684 -0.02813784 -0.052037224
000020 91 95 c7 3c 59 5c 09 bd 33 ae 86 3d ea 5f a2 bc
       0.024363311 -0.033535335 0.065761946 -0.019821126
000030 b0 92 11 3d 7b 1a 94 3d 7b 5f 00 b9 3e 28 e2 bc
       0.035540283 0.07231613 -0.000122426 -0.02760708
000040 b3 e6 8b 3c 74 2b 2f bd 22 67 06 3d d3 bd 7b 3d
       0.01707778 -0.04276605 0.0328132 0.061460327
000050 e1 0f 99 3c 21 ec 09 bc 20 65 bc bc f7 10 2c bd
       0.01868433 -0.008418114 -0.022997439 -0.042008366
000060 11 ad 9d bc 41 06 1a 3c f1 e7 bd 3b 5d bc d7 bb
       -0.019247564 0.009400905 0.005795472 -0.006583734
000070 be 52 0b bd 95 33 86 bd ee 42 0b 3d 61 ed 25 bd
       -0.034014456 -0.06552807 0.033999376 -0.040509585
000080 8b 8c 3d bd 24 94 5e 3d 4f 8d ad 3a d0 67 85 bc
       -0.04627661 0.054340497 0.0013240966 -0.016284853
000090 c1 fe dc 3b b3 2b 27 3d 94 e5 70 3d 47 a9 4c bd
       0.006744236 0.04081316 0.058812693 -0.049966123
0000a0 15 b6 54 bd 01 5b 36 bd 76 8c 8e bd 81 24 00 bd
       -0.05193146 -0.04452038 -0.069603845 -0.031284813
0000b0 5c 88 26 3c e0 46 2b bd 88 d5 47 bd 1f b2 91 bd
       0.010164347 -0.04181564 -0.048787624 -0.07114052
0000c0 c9 e2 38 bc 9f 4e 9c bc 59 74 48 bd fe 33 f3 bb
       -0.011284539 -0.019080458 -0.048939083 -0.0074219694
0000d0 1f ec 0d bd e7 ad 76 bb e1 15 10 bd 67 05 40 bd
       -0.03464901 -0.0037640275 -0.035177115 -0.046880152
0000e0 30 e5 35 3c c8 9f 24 3c d3 f8 f7 3c 18 d4 a9 3b
       0.011102006 0.01004786 0.030270016 0.0051827542
0000f0 c5 e5 ff bc a5 22 94 3d f0 ef 31 3c 64 83 41 3b
       -0.031237492 0.072331704 0.010860428 0.0029527778
000100 76 43 87 3c a7 95 47 bd d6 17 80 3d a7 02 9d 3c
       0.01651166 -0.048726704 0.06254546 0.019166304
000110 d2 51 6b 3d f3 48 fe 3c f4 1d 41 bd d2 df a9 3c
       0.057451077 0.031040644 -0.047147706 0.020736609
000120 48 c5 d0 3c c5 44 95 bc 5c 4e f4 b7 63 66 0c bc
       0.025484696 -0.018221268 -2.9123556e-05 -0.008569333
000130 98 06 9a 3c ac 96 bd bc d8 19 68 bc e5 54 88 3b
       0.018801972 -0.023143135 -0.014166318 0.004160511
000140 bf b0 4e 3d 3d 80 09 bd cc b3 5d bd 80 f8 9e bc
       0.050461527 -0.033569563 -0.054126546 -0.019405603
000150 93 f3 ef bc 21 7a 94 3c 85 ad d5 bc 90 94 59 bc
       -0.02929095 0.018124642 -0.026083717 -0.013280049
000160 70 d6 97 3c 11 f1 ca bc a9 f5 7e bd ee 63 65 3d
       0.018534869 -0.024773153 -0.062246 0.056003504
000170 94 a6 0c bd ed 48 75 3d c6 2a 36 bd f2 3c bd bb
       -0.03433855 0.059884 -0.044474386 -0.0057750875
000180 6f 02 c5 bc ca 47 ae bc 23 7b dc bc fb d9 83 bd
       -0.024049012 -0.021274466 -0.026914185 -0.06438061
000190 c9 a5 6b 3d 4e be 0b bd b7 cd b7 bc aa 0e 60 bb
       0.057531152 -0.034117036 -0.02243696 -0.0034188428
0001a0 58 f4 cc bc 51 48 1f 3c b0 44 88 3d 78 0b 96 bd
       -0.025018856 0.009721831 0.06653726 -0.07326406
0001b0 4a 88 40 bd bf fd 0c 3d ad 43 00 3d e6 2b d3 bc
       -0.047004975 0.03442168 0.03131454 -0.025777768
0001c0 8c 5f d8 3b 59 16 8b 3d fe 2e 59 3d 76 0f 3b bd
       0.006603187 0.06791372 0.05302333 -0.04566904
0001d0 0e 73 61 ba 78 52 39 3d 1b e0 8e bd 5e 84 ba 3c
       -0.00086002133 0.045244664 -0.069763385 0.022768196
0001e0 00 2d f2 3c 82 87 f3 bc 2f 9e 82 bc 31 78 d0 3c
       0.029562473 -0.029727701 -0.015944568 0.025447937
0001f0 b6 20 21 bd 9c 55 b3 3c 0e 7f 76 bd 82 1c 1a bd
       -0.039337836 0.021891408 -0.060179763 -0.037624843
000200 3d a5 80 bd d0 4f 4e 3d da 7a ec bc 15 46 ee 3c
       -0.06281517 0.050369084 -0.028867174 0.029086152
000210 3f eb 16 bd e7 29 09 bd fb 06 55 bd d5 6b fb 3c
       -0.036845442 -0.033487227 -0.05200861 0.030691067
000220 64 bb 45 3d d1 54 03 bd 92 32 3f bd 3e 71 65 3d
       0.048274413 -0.03206331 -0.046679087 0.0560162
000230 9a 55 fe 3c ac 16 3c 3d d3 89 8c 3a bf 0d 04 3d
       0.031046677 0.04592006 0.0010722227 0.03223967
000240 27 13 54 3c bf ec 90 3c f7 46 54 bd d9 9b 1c bc
       0.012944019 0.017691014 -0.05182549 -0.009558641
000250 60 5e 7f 3d 9d 46 3c 3d 50 fa 86 bd 9d d1 a5 3b
       0.062345862 0.04596578 -0.06590712 0.0050603882
000260 2e a9 de bc 1a 9f 65 3d e8 32 44 3d 54 75 17 3d
       -0.02718028 0.056059934 0.04790011 0.036977127
000270 b7 3d 01 3d 22 4c 0e bd 0a 56 fa bc 47 ba 96 bc
       0.031552996 -0.034740575 -0.030558605 -0.01839937
000280 2d b5 53 3d 00 07 34 bc e0 07 b7 bc 45 c4 58 3d
       0.051686455 -0.010987997 -0.022342622 0.052921552
000290 c7 97 f1 bc 92 20 cc bc 1e 9a 8e 3d 8a b4 6b 3c
       -0.029491318 -0.024917874 0.06962989 0.014386306
0002a0 bc 86 9b 3c 86 44 02 3d e9 03 43 bd c4 7f 17 3d
       0.018985145 0.03180363 -0.04761115 0.03698708
0002b0 dd d1 6c bd 33 05 84 bd ad ae 56 3d b2 77 a2 3d
       -0.05781733 -0.06446304 0.052412678 0.07932986
0002c0 67 4a 4b 3d 7c 52 4b bd 24 8d 8d 3c 61 9a 9d 3b
       0.049631502 -0.04963921 0.017279215 0.004809663
0002d0 c3 9a 29 3d 57 8f 0c 3b e4 bd da bc 04 18 88 bc
       0.041407358 0.0021447742 -0.026701875 -0.016613014
0002e0 6c 93 80 bd 48 c5 7a 3c 6d cd 28 3d b8 08 b8 3c
       -0.062781185 0.015305825 0.041211534 0.022465095
0002f0 2d de 11 3d a5 64 7a 3d af 25 1e 3d 30 69 6e bc
       0.035612274 0.06113114 0.038610157 -0.014551446
000300 c3 03 8f 3b 5a 95 b8 bc c4 d9 d6 bc 81 d7 ea bc
       0.004364462 -0.022532154 -0.026226886 -0.028667213
000310 53 24 2a 3d 7b 1f 5c 3d 94 30 4b 3b b1 e2 4a bd
       0.041538548 0.05374096 0.0031004297 -0.049532596
000320 4c f2 56 3d 9f 57 15 3d f4 e6 8a bd a9 e3 14 bd
       0.052477166 0.036460515 -0.06782332 -0.036349926
000330 25 40 dd 3c 48 43 b8 3d aa a5 df 3c 52 bb 6a bd
       0.027008126 0.08997208 0.027300674 -0.05730755
000340 8c 17 ec 3c 68 ce 51 3c 9d 57 fe bc 8f 1d 52 bc
       0.028819822 0.012805559 -0.031047637 -0.01282443
000350 f1 5d 78 bd 3f 60 5f bc 32 72 77 bc 4c d4 15 bc
       -0.060636465 -0.013633787 -0.01510291 -0.009144854
000360 ac 51 20 3d a3 af 48 bd de 96 6d bb 9e 51 4c bd
       0.03914039 -0.048995625 -0.0036253254 -0.049882524
000370 56 a2 bf bc 6b da b1 bc 1a 53 ca bc 7a 06 7c bd
       -0.023392837 -0.021710595 -0.024697829 -0.061529614
000380 32 ee 99 3c 95 bc e9 3c 33 43 23 38 95 d7 d1 3b
       0.018790338 0.028532306 3.8924813e-05 0.006403873
000390 8d 48 40 3d e6 46 4a 3d 7f 53 24 bd b0 0f 3a 3d
       0.04694419 0.04938402 -0.04011869 0.045425117
0003a0 b8 df 22 bd 43 9f 7e 3a 87 4b 35 3d 11 bb fd 3c
       -0.039764136 0.0009713063 0.04426148 0.03097299
0003b0 9b 21 c9 bc fe 5d 55 3d bc 76 a3 bc 71 ca 51 3d
       -0.024552157 0.05209159 -0.019954078 0.051218454
0003c0 cc 73 40 bc 0b 0c 24 3c cb be 2f bd b8 33 56 3c
       -0.011746358 0.010012637 -0.042906564 0.013073854
0003d0 7e df c2 3c 65 db c0 3b eb 76 8b bd b8 45 12 3d
       0.02378821 0.005885529 -0.06809791 0.03571102
0003e0 b7 24 1c 3d 64 be a5 bc 1a 20 2d 3d 56 5e 60 3d
       0.03812095 -0.020232387 0.042266943 0.054777466
0003f0 ab 99 46 3d 74 2a f7 3c 3a 7b eb 3b ef 03 ab 3c
       0.048486393 0.03017161 0.0071863206 0.0208759

bias f4 [2]
000000 da e0 5a 3d e4 41 7b bd
       0.05343709 -0.061342135

weight f4 [1, 256]
000000 3d ff e9 bd ff 76 9e bc 6e 00 58 3d c1 f9 4e bd
       -0.11425636 -0.019343851 0.052734785 -0.050531153
000010 9d 4a 57 3d e7 2c 5f bd c3 8f 90 3c 5a ef 51 3d
       0.05256139 -0.05448618 0.017646676 0.051253654
000020 03 19 52 bd f0 da 11 bd 11 6a 0e bc b3 cb f5 bb
       -0.051293384 -0.035609186 -0.00869228 -0.0075010895
000030 0d 25 8e bd e4 2f 87 3b 78 cd 27 bd 8d 87 ef 3c
       -0.069406606 0.004125582 -0.040967435 0.02923944
000040 15 a8 85 3c d8 9b de 3b f1 d1 24 3d b2 a8 54 3a
       0.0163155 0.0067934804 0.04023928 0.0008112296
000050 b3 d3 c6 bc 28 4f cf ba b4 93 4d 3d 78 26 c0 bc
       -0.024270868 -0.0015816437 0.05018969 -0.023455843
000060 dc c7 5e 3d eb 6c 2b 3d 5e fc 48 3c 07 9f 56 bd
       0.05438982 0.04185192 0.0122672 -0.052397754
000070 88 a1 29 3c 5c 17 7c bd fc 71 2c 3c 29 df 7a bd
       0.010353453 -0.061545715 0.010525223 -0.06124798
000080 79 60 d7 bc b8 64 5a bd 5c de 19 bd 9a 1c dd 3d
       -0.026291119 -0.05331871 -0.037565574 0.10796471
000090 69 32 c0 bd 44 86 32 bd b9 b0 a7 bc 1f ad 99 3c
       -0.09384615 -0.043585077 -0.02047001 0.018759308
0000a0 e1 b0 dd 3b 46 0e 9c 3c 2b b0 3b bc dd 78 f7 bb
       0.0067654704 0.019049775 -0.011455576 -0.00755225
0000b0 5f 38 03 bd e6 f0 c0 3c a8 2a 23 3c fa 7d 3d bd
       -0.03203618 0.02355237 0.0099589005 -0.04626272
0000c0 a2 c2 6f bd b5 cc 4e bd 7f 8b cc bd 7e 6d 99 3b
       -0.058535226 -0.050488193 -0.09987544 0.004682242
0000d0 a8 00 35 3d 38 f7 b7 bb 40 98 40 3d 28 e8 f5 bc
       0.04419008 -0.0056141876 0.047020197 -0.030017927
0000e0 f0 1c fb 3c be ee 61 3d ab f7 cc bc 34 05 23 bd
       0.030653447 0.055159323 -0.025020441 -0.039799884
0000f0 7b c5 aa bc dc be 7c 3d 77 7a 95 bd 50 51 4a bb
       -0.02084612 0.061705455 -0.07298749 -0.003087122
000100 04 8e 04 bc c9 98 4e bc 67 82 bf 3a 89 ce 11 bc
       -0.0080905 -0.012609669 0.0014611006 -0.0088993395
000110 a7 82 0b 3d 3b 05 58 bd 15 7f 29 bc b1 28 46 3b
       0.034060147 -0.052739363 -0.01034524 0.0030236656
000120 76 98 02 3d 00 38 05 3d 62 39 39 3b 44 af 3e bd
       0.03188368 0.03252411 0.0028262963 -0.046553865
000130 ab bd b4 3d d1 e2 ff bc 0c aa 4e bd 22 8a 8c bc
       0.08825239 -0.031236084 -0.050455138 -0.01715571
000140 53 ac 8c bd f3 f5 04 bd 3a 6f 04 3d 43 a5 3d bd
       -0.06868806 -0.032461118 0.032332636 -0.046300184
000150 d3 98 7e bd c3 a6 0b 3d 70 a7 59 3d e5 64 56 bd
       -0.062157463 0.034094583 0.053138196 -0.052342314
000160 89 c6 0a bd 3a 34 6a 3c 1c 55 6f 3d d7 6a d5 bb
       -0.033880744 0.014294678 0.058430776 -0.0065129804
000170 fd 3b 50 bc b5 95 04 3b bd 01 b7 bc ad ad 2e 3d
       -0.012709615 0.0020230834 -0.022339696 0.0426461
000180 45 39 41 3d c1 8e 3b 3d f3 d3 75 3c 97 01 15 bb
       0.047173757 0.045790438 0.015004146 -0.0022736543
000190 29 2f 4c 3d 00 ce f2 3c f2 64 3e 3d 29 02 63 3d
       0.049849663 0.029639244 0.046482988 0.055421982
0001a0 22 30 32 bc 23 19 a1 3d 7a 00 8f bc 2b 3f 72 3c
       -0.010875734 0.078661226 -0.017456282 0.014785568
0001b0 31 87 72 bd ed 83 8f 3c 04 1f 0e bc af ef 9c 3c
       -0.05921096 0.017518962 -0.008674387 0.019157259
0001c0 1c d5 d8 3c 82 2a ff 3c e4 cb 44 3d 7e 70 d2 3b
       0.026468806 0.031148199 0.048046008 0.0064221015
0001d0 40 49 60 3d 84 84 4c bd 83 49 47 bd 4f 04 48 bd
       0.054757357 -0.049931064 -0.04865409 -0.048832234
0001e0 a1 05 89 3c 79 f0 de bc b8 32 f8 3c 01 3b 0f bd
       0.016726317 -0.027214276 0.030297622 -0.03496838
0001f0 da b4 f4 bc 1e 13 56 3d 29 80 c5 bc 51 e5 e5 bc
       -0.029871393 0.052264325 -0.024108963 -0.028063448
000200 1b e1 18 3d fd 5e 0f 3e e2 d7 48 3c 07 f5 a3 3c
       0.037324052 0.14001079 0.012258502 0.0200143
000210 34 f3 f3 bc f0 c7 d4 bb 5a 17 96 bd 02 a8 40 3b
       -0.029779054 -0.006493561 -0.07328673 0.0029397015
000220 c1 f2 5c bc 51 a7 b3 3c ff ce 71 bd ef 5b d5 3c
       -0.013485611 0.021930369 -0.059035297 0.026044814
000230 5b 07 ad 3b 18 6c a1 ba 6d 34 cf 3b 98 8f ad 3b
       0.005280418 -0.001231554 0.0063233883 0.0052966587
000240 9c ea 5d bd c8 79 29 3d fc 1d 34 3b 31 7b e5 3c
       -0.05417882 0.041375905 0.0027483692 0.028012844
000250 f2 17 ce bc 43 92 79 3c c7 ab c8 3c 7b b6 fe bc
       -0.025157902 0.015232625 0.024495972 -0.031092873
000260 88 29 6d 3c 08 13 34 bd 22 1b 1f 3c 13 74 52 3d
       0.014475234 -0.043963462 0.009711059 0.05138023
000270 f1 5d 85 bc bf f6 41 3d 9e f8 82 bb 41 b1 25 bd
       -0.016280146 0.047354456 -0.0039969226 -0.040452246
000280 f4 15 26 3c d9 9d 9d bb 24 b2 3d 3d 0c f0 64 3b
       0.01013707 -0.0048100767 0.046312466 0.0034933118
000290 c4 68 80 3d 6c 3e 36 bd 8c fe 12 bc 49 93 4f 3d
       0.062699825 -0.044493124 -0.0089718215 0.05067757
0002a0 a6 d5 22 bd 73 8d bf bc 75 61 8d 3d 11 c0 fa bc
       -0.039754532 -0.023382878 0.06903354 -0.030609163
0002b0 17 af fd 3b 25 c5 98 bd 12 03 77 bd 97 6c 88 bc
       0.0077418196 -0.07459477 -0.060305662 -0.016653342
0002c0 8c 0d 74 bc 0f a0 96 bc d5 2d ff b9 fa eb 52 bd
       -0.014895808 -0.018386869 -0.00048671538 -0.051494576
0002d0 29 45 0e 3d f8 fe 91 bd f9 d5 93 bd 05 fd bc bc
       0.034733925 -0.071287096 -0.072185464 -0.023069868
0002e0 8d 71 94 bc f9 be 10 bd fa c9 80 bd 4b 69 11 3d
       -0.018120551 -0.035338376 -0.06288524 0.035500806
0002f0 dd 60 6a bc 68 99 a3 bc 7d 55 dc 3c 71 02 75 bc
       -0.014305321 -0.01997061 0.026896233 -0.014954195
000300 6e 79 bb 3c 91 04 21 bd 9d b6 d8 bc 7c 85 17 bd
       0.02288505 -0.039310995 -0.026454264 -0.036992535
000310 94 81 03 3d 7a 40 6d 3d 3d e7 f9 3c f4 bd 75 bc
       0.032105997 0.057922818 0.03050577 -0.014998902
000320 cb 3b 12 3d 20 75 9b bc 95 32 5d bd d8 a1 41 bd
       0.035701554 -0.018976748 -0.054003317 -0.047273487
000330 e5 28 04 3d 6c 4e 6a bd 0a 35 b4 3c ad 9b 9d bc
       0.032265563 -0.057203695 0.021997947 -0.019239271
000340 11 d4 8e bd 8a cc 42 bd 83 df 4a 3d 84 d2 4c 3d
       -0.06974042 -0.047558345 0.049529564 0.05000545
000350 98 98 6f 3c fd 86 2d bd 8f ca 4c 3d fb 3f 6e bd
       0.0146237835 -0.042365063 0.049997862 -0.058166485
000360 9d 0b 4f bc d7 82 d0 bc d0 b6 4a 3d c4 81 1c bd
       -0.012637046 -0.025453014 0.04949075 -0.03820969
000370 00 1d f0 bc 98 9b 31 bc 0f 02 25 bc 1c d3 04 3d
       -0.029310703 -0.010840319 -0.010071292 0.032427892
000380 12 74 89 39 2b f2 34 3d 9d 29 67 3d 84 1a 42 bd
       0.00026217155 0.044176262 0.05643617 -0.04738857
000390 2c 87 49 3d 5a 87 32 3d db c5 45 3d 8f dd a1 ba
       0.049201176 0.043586113 0.048284393 -0.0012349355
0003a0 66 2a d0 3c ab 07 ba 3a 9a a2 07 bc ae 72 0a 3c
       0.025410842 0.0014192959 -0.008278513 0.008450193
0003b0 89 17 f8 bc 7e 36 09 bd 88 72 63 bd da 25 a7 bc
       -0.03028466 -0.033499233 -0.055529147 -0.020403791
0003c0 d2 14 58 bd 92 89 8d 3d bd cd d2 3c b0 48 33 3a
       -0.05275423 0.06911005 0.02573287 0.00068391394
0003d0 4f d5 13 3d 93 35 85 3c c0 07 5c 3c ed 97 e7 3b
       0.0360921 0.016260898 0.013429582 0.0070676715
0003e0 cc c0 0b bd b0 3d 5d 3d 4e ec d3 bc e0 d0 78 bc
       -0.034119412 0.054013908 -0.025869515 -0.015186518
0003f0 e5 7c b8 3a d1 40 0a 3d d8 fb 9f bc 99 49 96 3a
       0.0014075307 0.03375322 -0.019529268 0.0011466026

log_std f4 [1, 2]
000000 1f 28 fd 3d 63 d3 08 3e
       0.12361168 0.13361888
